cartesi-onnx-template/nn.onnx (onnx, 50259 bytes, 11 tensors)

policy.mlp_extractor.policy_net.0.weight f4 [64, 16]
0.07876344 -0.078456976 0.33990586 0.13705325 0.12433735 0.04366276 -0.45140728 0.042041637
-0.13193104 -0.5520731 0.1520241 0.21176778 0.37841493 -0.057132985 -0.020536896 0.11975923
-0.050247002 0.34748584 0.0030279076 0.15642993 -0.13276057 -0.049057182 0.6070996 0.4726172
0.039183673 -0.21256657 -0.12100866 -0.015422789 0.03308886 0.12570745 0.065180816 0.39086518
-0.45293912 0.5062127 -0.05990227 0.32311463 -0.094570436 0.1833564 -0.005364977 -0.1845465
0.17452681 -0.12314769 0.279967 -0.22989458 -0.2057105 -0.21822082 -0.2217687 0.16772018
-0.19977875 0.3056114 -0.079304874 0.26996562 -0.67721796 0.025733264 -0.013948733 0.007828869
0.10184254 0.314029 -0.28778392 0.09817742 -0.15442264 0.21009302 0.17186555 0.16960981
0.029135784 -0.23181461 0.055009432 -0.29249156 0.19725595 0.08743408 0.17340763 0.3323305
-0.120841324 -0.14468431 0.33289692 -0.25851238 -0.22429025 -0.36879277 0.09882937 -0.024050036
0.16133954 0.18353523 0.20094907 -0.6805833 0.12627947 -0.21313544 0.070093855 0.001385266
-0.116843216 0.11306292 0.17849901 0.12264138 -0.103782654 0.4162628 -0.28215274 -0.02637309
0.3192239 0.04192219 0.0938324 0.17850877 0.25690076 -0.05924953 -0.10196334 -0.08099495
-0.45806742 -0.12119579 0.02103748 0.11226683 0.15144287 -0.45224217 -0.46419725 -0.013642004
-0.10280298 -0.03887412 0.13714048 -0.039876092 0.18031348 -0.052199457 0.081410885 -0.01038189
-0.5252449 0.19218339 -0.53587854 0.0038306066 -0.05835863 0.27025208 0.3994619 0.25789937
0.31098932 0.100054465 0.25391376 -0.06960223 0.3174009 -0.06334465 0.33542004 0.08184303
0.06847186 -0.17428301 0.06403984 -0.028514879 -0.26479945 0.25054172 -0.08198907 0.16010197
0.098905556 -0.09223383 0.11270903 -0.20648555 0.1429783 0.03148871 0.13143781 -0.22230579
-0.42269236 -0.0025642887 0.081489734 0.046249602 0.1524409 -0.41159317 -0.14184937 -0.012040454
-0.020157127 -0.044996418 -0.03167324 -0.3625925 0.4868667 0.03970286 0.27255398 -0.006419984
-0.09520556 -0.40233392 -0.21690676 -0.18167287 -0.20522317 0.21434426 -0.31141987 -0.25336692
0.3660853 -0.32229897 0.2669932 -0.08050033 0.27706757 0.16646783 0.2846944 0.041142378
0.004362254 0.09959483 0.35487604 0.086971395 -0.23228066 0.006936212 0.07885915 -0.030343805
0.39982155 0.058526486 -0.23607792 0.18614447 -0.022699272 -0.056872007 -0.39691287 0.046627183
0.0050409283 0.1362861 -0.11621101 -0.16781545 -0.301259 -0.22489838 -0.035952356 0.13091338
-0.18082643 0.14595436 0.17804895 0.2299079 -0.19728243 -0.25357515 -0.025370238 0.32198003
0.30491236 0.040078737 -0.26854107 -0.1485878 0.12022942 -0.08781949 0.23595105 0.051802944
-0.22656254 0.109770246 -0.15502186 0.18284428 0.014483249 0.29881945 0.13055873 0.15652695
0.31611958 0.24760598 -0.021915633 -0.18470882 0.20711441 0.05013939 -0.22427149 0.014635477
-0.19638936 0.06156964 0.08177404 0.1999418 -0.2982635 0.282249 -0.016785625 -0.26387936
0.10715703 -0.11144624 0.23970754 -0.21870324 0.083063535 0.21589376 0.03912704 0.23271601
00000000: ba4e a13d 0dae a0bd 2408 ae3e b057 0c3e
00000010: 95a4 fe3d b9d7 323d db1e e7be da33 2c3d
00000020: ee18 07be aa54 0dbf 35ac 1b3e a7d9 583e
00000030: 9abf c13e 4704 6abd fe3c a8bc 5444 f53d
00000040: cdcf 4dbd aae9 b13e dc6f 463b 2b2f 203e
00000050: 63f2 07be 2ff0 48bd e16a 1b3f e2fa f13e
00000060: 0f7f 203d 0dab 59be 63d3 f7bd deaf 7cbc
00000070: 2f88 073d 74b9 003e 857d 853d 7b1f c83e
00000080: a3e7 e7be 2897 013f 155c 75bd 486f a53e
00000090: 25ae c1bd c8c1 3b3e b0cc afbb c2f9 3cbe
000000a0: 28b7 323e db34 fcbd d657 8f3e 7c69 6bbe
000000b0: c6a5 52be 4775 5fbe 5617 63be d7be 2b3e
000000c0: cd92 4cbe 1979 9c3e 986a a2bd ef38 8a3e
000000d0: 285e 2dbf 91ce d23c 3a89 64bc a844 003c
000000e0: d292 d03d 69c8 a03e 6a58 93be 3e11 c93d
000000f0: f820 1ebe a022 573e 86fd 2f3e 32ae 2d3e
00000100: 2bae ee3c cf60 6dbe 9251 613d 74c1 95be
00000110: 77fd 493e a410 b33d c591 313e 3927 aa3e
00000120: a87b f7bd 2028 14be 7771 aa3e bc5b 84be
00000130: 58ac 65be 68d2 bcbe 0e67 ca3d 9504 c5bc
00000140: 3136 253e a9f0 3b3e 98c5 4d3e b53a 2ebf
00000150: 684f 013e 2d40 5abe 5e8d 8f3d d091 b53a
00000160: 7f4b efbd 888d e73d 72c8 363e 672b fb3d
00000170: 008c d4bd 6620 d53e 5376 90be 610c d8bc
00000180: 5171 a33e 9ab6 2b3d 342b c03d 01cb 363e
00000190: 7f88 833e a3af 72bd 28d2 d0bd aee0 a5bd
000001a0: d087 eabe 8035 f8bd cb56 ac3c 27ec e53d
000001b0: d713 1b3e 498c e7be 43ab edbe b682 5fbc
000001c0: 5e8a d2bd 783a 1fbd 8e6e 0c3e 1d55 23bd
000001d0: 19a4 383e 19cf 55bd c0ba a63d ce18 2abc
000001e0: 7376 06bf b9cb 443e 562f 09bf ea0a 7b3b
000001f0: 7509 6fbd 7b5e 8a3e 4586 cc3e 630b 843e
00000200: fe39 9f3e 5be9 cc3d fc00 823e 9d8b 8ebd
00000210: 5f82 a23e d7ba 81bd 2dbc ab3e 529d a73d
00000220: f93a 8c3d 3f77 32be 5227 833d 0998 e9bc
00000230: cb93 87be 0147 803e e3e9 a7bd c5f1 233e
00000240: ff8e ca3d 17e5 bcbd fed3 e63d f370 53be
00000250: e768 123e 4efa 003d a297 063e 21a4 63be
00000260: 226b d8be a00d 28bb 17e4 a63d 3970 3d3d
00000270: 7819 1c3e 57bc d2be f640 11be 5345 45bc
00000280: 8f20 a5bc 2a4e 38bd cdbb 01bd b9a5 b9be
00000290: 9846 f93e 779f 223d 328c 8b3e bb5e d2bb
000002a0: 22fb c2bd b6fe cdbe ce1c 5ebe 7408 3abe
000002b0: 0626 52be 107d 5b3e 6d72 9fbe 4fb9 81be
000002c0: 886f bb3e 5f04 a5be 55b3 883e 5bdd a4bd
000002d0: cddb 8d3e 8b76 2a3e 77c3 913e e984 283d
000002e0: 3df1 8e3b 60f8 cb3d 50b2 b53e 0f1e b23d
000002f0: fbda 6dbe 2a49 e33b e880 a13d 9293 f8bc
00000300: 69b5 cc3e 78b9 6f3d 69be 71be a89c 3e3e
00000310: d3f3 b9bc 9ff2 68bd 2a38 cbbe 25fc 3e3d
00000320: 5f2e a53b 958e 0b3e 0a00 eebd d0d7 2bbe
00000330: 9f3e 9abe c34b 66be c742 13bd 280e 063e
00000340: 902a 39be 0f75 153e 7752 363e fa6c 6b3e
00000350: 6804 4abe 9ad4 81be 3fd5 cfbc 91da a43e
00000360: 791d 9c3e 9a29 243d 377e 89be 6627 18be
00000370: d83a f63d b4da b3bd 279d 713e 532f 543d
00000380: 0300 68be 39cf e03d 0dbe 1ebe 883b 3b3e
00000390: 264b 6d3c ddfe 983e 30b1 053e 9a48 203e
000003a0: 6dda a13e 6c8c 7d3e 6a88 b3bc 4f24 3dbe
000003b0: cd15 543e f65e 4d3d 6da7 65be a4c9 6f3c
000003c0: 4b1a 49be 7230 7c3d 2679 a73d 8bbd 4c3e
000003d0: feb5 98be f182 903e 0282 89bc 321b 87be
000003e0: 2575 db3d ed3d e4bd e575 753e bef3 5fbe
000003f0: 371d aa3d 4113 5d3e ad43 203d 1b4d 6e3e

policy.mlp_extractor.policy_net.0.bias f4 [64]
0.02418146 0.029297534 0.021211633 -0.015042181 0.0018105987 0.01313179 0.054600567 -0.0065760314
0.035159994 0.041007873 0.0233997 0.043919686 0.019031046 -0.014308465 0.0027359962 -0.053537697
-0.018305626 0.060945097 0.006530682 3.2157925e-05 -0.008082379 0.027938433 -0.00992766 -0.040973384
0.070999816 -0.0042930413 0.009561498 -0.010822684 0.014369228 0.013761683 0.035924394 -0.013195421
0.011670691 -0.03824294 -0.0008543399 -0.012021644 -0.017068118 -0.0074142204 -0.007759509 -0.0099018365
0.014735344 -0.015790474 0.0039584017 0.0585524 0.012587301 -0.016417835 -0.04278176 0.038813636
0.009759631 0.014689293 -0.021069473 0.028201547 -0.062298294 0.042327084 0.05004481 -0.055059236
-0.017859317 0.011321176 -0.004031964 -0.01071101 0.037694834 -0.035227798 -0.02242933 -0.02856045
00000000: 3218 c63c 6201 f03c 05c4 ad3c 7b73 76bc
00000010: 9c51 ed3a b826 573c d8a4 5f3d c07b d7bb
00000020: ed03 103d dff7 273d bab0 bf3c 21e5 333d
00000030: ffe6 9b3c 0d6e 6abc 664e 333b 584a 5bbd
00000040: aef5 95bc 91a1 793d 55ff d53b 4fe1 0638
00000050: f46b 04bc 24df e43c a0a7 22bc b5d3 27bd
00000060: 5a68 913d a4ac 8cbb d4a7 1c3c a051 31bc
00000070: e96c 6b3c af78 613c 7525 133d 9b31 58bc
00000080: 6d36 3f3c a1a4 1cbd c8f5 5fba 6ef6 44bc
00000090: 70d2 8bbc fdf2 f2bb 7b43 febb 503b 22bc
000000a0: 836c 713c 065b 81bc 7bb5 813b a4d4 6f3d
000000b0: f83a 4e3c b27e 86bc ed3b 2fbd 0cfb 1e3d
000000c0: dce6 1f3c 5cab 703c e399 acbc ee06 e73c
000000d0: 7f2c 7fbd 2a5f 2d3d c9fb 4c3d cb85 61bd
000000e0: b44d 92bc 747c 393c 911e 84bb 3b7d 2fbc
000000f0: e665 1a3d 064b 10bd b7bd b7bc 9bf7 e9bc

policy.mlp_extractor.policy_net.2.weight f4 [64, 64]
0.17936403 0.23876588 0.2086881 -0.49676552 -0.049260326 0.20711514 0.035367228 -0.015328583
0.4027372 -0.35005322 0.30588615 -0.2935014 -0.31236336 0.07764262 0.25518706 -0.20160449
0.2365703 -0.07675912 0.053958964 -0.4434666 0.11335607 0.10745658 -0.09175334 0.307232
0.012864808 0.13404115 0.08502238 0.2395617 0.010442554 0.17962012 0.08838404 0.12985395
-0.08679052 -0.18773693 0.1877881 -0.19066623 -0.5534674 0.029199228 -0.23830946 -0.06810094
0.23170327 0.0330857 0.12244071 -0.34360284 -0.117700554 0.11848808 -0.14081094 -0.099612996
-0.16578197 -0.16880623 -0.016842702 0.39436662 -0.36072758 -0.1506999 -0.15782954 -0.16130762
-0.15759371 0.36334315 0.041104257 -0.030157086 0.24971323 0.44134364 0.100697875 0.60560685
0.03894178 0.31009007 0.26373932 0.52768844 -0.17503588 0.13290568 -0.35506356 0.21383005
-0.058043107 0.1655749 -0.017999334 -0.22980735 -0.03742418 0.032573264 0.034344953 -0.020396667
0.08668524 -0.060836103 0.01180789 0.07913512 0.28611845 -0.3147153 -0.07228473 0.07353001
-0.35379216 0.34835243 0.0023031728 0.32562754 0.21072608 -0.16530123 0.05582969 0.046823423
0.06867377 0.14941551 0.23675793 -0.4302067 -0.047345378 -0.27028656 -0.108696535 -0.3437432
-0.10232467 0.025149107 0.086339034 -0.30423072 0.0040421104 0.14887194 0.04919837 0.18050234
-0.25081453 -0.14959036 0.012003467 0.42951518 0.29079166 0.009435462 0.044363245 -0.039681993
0.30116335 0.022967456 -0.09192509 0.114740044 -0.051737886 0.39350718 -0.14524339 0.036828026
-0.13832073 0.030963654 0.054314002 -0.19002637 0.44363603 0.18328781 0.29848632 -0.32523084
0.19680963 0.3115216 0.10199994 0.0066394517 -0.083003215 0.077313095 -0.069195375 -0.19267634
-0.45970213 -0.09901133 -0.5120908 0.20833287 -0.26146173 0.1564369 -0.082610235 0.117868476
0.12614779 -0.30647215 0.05521261 -0.36258614 0.29412562 0.23453449 0.29811016 -0.17212601
0.3260815 -0.35955808 0.17018373 0.15556177 0.16770196 0.015574045 -0.18583763 -0.33511567
0.12625988 -0.13398336 0.059654605 0.07963616 0.010770518 -0.013398731 -0.046964597 0.1470483
0.11005681 0.051668655 -0.041202795 -0.059972618 -0.22728804 0.45363864 0.16414644 0.10037837
0.05893717 0.3107142 0.15562582 -0.1452317 0.123006485 0.14656648 0.09526418 -0.120060086
0.07640324 0.20045002 0.12514071 0.009541725 0.22318311 0.022782743 -0.14678998 0.27672228
-0.15970747 0.23713875 -0.2219267 0.32477412 0.1475309 -0.19279279 0.00480728 -0.41273433
-0.023903022 -0.11670883 -0.23894632 -0.06730471 -0.08013674 0.10934332 -0.35231605 0.150551
-0.33631405 -0.16398446 -0.050886046 -0.09759516 -0.0043972386 -0.44277528 -0.032348655 -0.09266856
0.19777209 0.14677583 0.08165971 0.27645227 0.33916968 -0.19524628 0.6173665 0.25167525
-0.06269056 0.51182795 -0.1618896 0.2952114 0.24333599 -0.20977408 0.31989983 -0.07065144
0.08231234 -0.13816893 0.44527778 -0.27918637 0.11610642 -0.30183724 -0.20991616 -0.04555808
0.18073879 -0.030515058 0.025434 -0.17083268 -0.34090692 -0.026107054 -0.042848665 -0.04414303
00000000: 34ab 373e 0b7f 743e 55b2 553e 0d58 febe
00000010: 32c5 49bd fe15 543e 3add 103d bd24 7bbc
00000020: 9233 ce3e 2d3a b3be 1c9d 9c3e d145 96be
00000030: 17ee 9fbe 1803 9f3d e1a7 823e 6871 4ebe
00000040: 7c3f 723e e333 9dbd 1304 5d3d 0e0e e3be
00000050: 3a27 e83d 3212 dc3d 2de9 bbbd 834d 9d3e
00000060: eac6 523c 1542 093e 3720 ae3d aa4f 753e
00000070: 3f17 2b3c 56ee 373e b102 b53d 6ff8 043e
00000080: 3abf b1bd 1c3e 40be 864b 403e 023e 43be
00000090: 0ab0 0dbf 3833 ef3c 6507 74be 8178 8bbd
000000a0: 9f43 6d3e df84 073d 32c2 fa3d b6ec afbe
000000b0: fd0c f1bd e1a9 f23d be30 10be e601 ccbd
000000c0: c0c2 29be 8adb 2cbe b5f9 89bc 6cea c93e
000000d0: 49b1 b8be 1351 1abe 119e 21be d32d 25be
000000e0: 3f60 21be 1d08 ba3e f05c 283d fe0b f7bc
000000f0: d3b4 7f3e cbf7 e13e b03a ce3d 0d09 1b3f
00000100: 6a81 1f3d 20c4 9e3e d708 873e 9716 073f
00000110: 9b3c 33be 6d18 083e e4ca b5be 44f6 5a3e
00000120: 9cbe 6dbd 778c 293e 5773 93bc 9e52 6bbe
00000130: 194a 19bd 8b6b 053d 4bad 0c3d e916 a7bc
00000140: 0888 b13d 472f 79bd e175 413c 9811 a23d
00000150: 1e7e 923e 5d22 a1be 040a 94bd e796 963d
00000160: 3f24 b5be 405b b23e d4f0 163b a7b8 a63e
00000170: 94c8 573e ba44 29be acad 643d ebc9 3f3d
00000180: d5a4 8c3d 6100 193e ac70 723e 0d44 dcbe
00000190: 3aed 41bd 0063 8abe 4a9c debd 1cff afbe
000001a0: 998f d1bd 8005 ce3c 85d2 b03d 21c4 9bbe
000001b0: ae73 843b e371 183e 3b84 493d 9bd5 383e
000001c0: c36a 80be 372e 19be 31aa 443c 6ae9 db3e
000001d0: a5e2 943e 3297 1a3c 3cb6 353d 9689 22bd
000001e0: 1532 9a3e 3f26 bc3c 3943 bcbd d4fc ea3d
000001f0: 1beb 53bd c679 c93e afba 14be fcd8 163d
00000200: f3a3 0dbe 7da7 fd3c 5c78 5e3d 4696 42be
00000210: 4324 e33e cdaf 3b3e 33d3 983e a884 a6be
00000220: 7788 493e c27f 9f3e 58e5 d03d c28f d93b
00000230: 97fd a9bd 5456 9e3d 4eb6 8dbd f24c 45be
00000240: 145e ebbe 74c6 cabd 6218 03bf 3655 553e
00000250: 50de 85be ff30 203e 8e2f a9bd 0765 f13d
00000260: e32c 013e ebe9 9cbe 9e26 623d e4a4 b9be
00000270: a297 963e cf29 703e e5a1 983e cd41 30be
00000280: 28f4 a63e ff17 b8be a544 2e3e 964b 1f3e
00000290: 10ba 2b3e 472a 7f3c 384c 3ebe 4894 abbe
000002a0: 454a 013e ef32 09be 6358 743d 4818 a33d
000002b0: d476 303c 5a86 5bbc f35d 40bd d493 163e
000002c0: 7765 e13d 83a2 533d 43c4 28bd d9a5 75bd
000002d0: 32be 68be 5343 e83e 0116 283e 2d93 cd3d
000002e0: 1a68 713d ee15 9f3e 605c 1f3e 9eb7 14be
000002f0: d3ea fb3d 8615 163e de19 c33d 10e2 f5bd
00000300: 4d79 9c3d c542 4d3e e324 003e e554 1c3c
00000310: 1d8a 643e e0a2 ba3c 1d50 16be 8bae 8d3e
00000320: 5b8a 23be 80d4 723e c140 63be cb48 a63e
00000330: 5712 173e 796b 45be 6386 9d3b ea51 d3be
00000340: 45d0 c3bc 0a05 efbd 58ae 74be 0dd7 89bd
00000350: bb1e a4bd 64ef df3d c562 b4be 0b2a 1a3e
00000360: 5b31 acbe 8beb 27be e36d 50bd f9df c7bd
00000370: b616 90bb 71b3 e2be 0680 04bd 04c9 bdbd
00000380: c484 4a3e 674c 163e 353d a73d 278b 8d3e
00000390: a6a7 ad3e a4ee 47be bb0b 1e3f 94db 803e
000003a0: e963 80bd 2807 033f 63c6 25be f325 973e
000003b0: 122d 793e 04cf 56be e9c9 a33e b4b1 90bd
000003c0: 5f93 a83d 287c 0dbe 73fb e33e 84f1 8ebe
000003d0: 34c9 ed3d 698a 9abe 43f4 56be 1c9b 3abd
000003e0: 9713 393e b7fa f9bc f75a d03c c3ee 2ebe
000003f0: 5a8b aebe 76de d5bc 1582 2fbd 52cf 34bd

policy.mlp_extractor.policy_net.2.bias f4 [64]
0.034592222 -0.010816955 0.014045335 0.0055471165 -0.013061389 0.048271663 -0.057051957 -0.026409866
0.016793538 -0.005771786 -0.023379441 -0.046963487 0.02619525 -0.0153854 0.017184502 0.03159817
0.026993295 0.01728256 0.050034303 -0.00445581 -0.03655215 0.019702982 0.0045296736 -0.014787172
0.014331867 -0.008624699 -0.001293456 0.006201166 0.03833555 0.005001525 0.052574772 0.024332983
0.0026209294 0.01151645 0.0040762797 -0.011324409 -0.028039124 -0.032874823 0.06619214 0.02518649
-0.0003728656 0.004916432 0.0031328432 0.013093278 -0.001457615 -0.049896736 0.016660124 0.030560091
0.02158824 -0.05401453 -0.027342387 -0.014040336 -0.0062165665 -0.0017354068 0.0061540087 -0.030537264
0.053716537 -0.02123707 0.03394178 0.06462682 0.01271621 0.018609641 0.04305065 -0.04156339
00000000: 93b0 0d3d 9939 31bc 681e 663c 96c4 b53b
00000010: 70ff 55bc 82b8 453d 50af 69bd 8159 d8bc
00000020: 9a92 893c 4021 bdbb 3e86 bfbc c95c 40bd
00000030: 6c97 d63c 0b13 7cbc 83c6 8c3c 156d 013d
00000040: 0b21 dd3c 2894 8d3c c5f0 4c3d 0b02 92bb
00000050: b5b7 15bd 2668 a13c a86d 943b e545 72bc
00000060: 35d0 6a3c 9c4e 0dbc 2e89 a9ba 2733 cb3b
00000070: bd05 1d3d d5e3 a33b a558 573d f755 c73c
00000080: e6c3 2b3b 7eaf 3c3c 5092 853b 048a 39bc
00000090: 4eb2 e5bc c0a7 06bd bf8f 873d e653 ce3c
000000a0: 2c7d c3b9 051a a13b 6350 4d3b 3085 563c
000000b0: 720d bfba 8560 4cbd d07a 883c 2859 fa3c
000000c0: d2d9 b03c 573e 5dbd 24fd dfbc 7009 66bc
000000d0: 57b4 cbbb 9776 e3ba 91a7 c93b 4929 fabc
000000e0: df05 5c3d 5df9 adbc 8906 0b3d 115b 843d
000000f0: a757 503c 3f73 983c e155 303d 603e 2abd

policy.mlp_extractor.value_net.0.weight f4 [64, 16]
0.1073657 0.21215288 0.3688468 -0.29006654 -0.1879321 -0.001356325 0.12182678 0.034178365
0.059883203 -0.0549189 -0.038372383 -0.22609599 -0.04705199 0.17331064 -0.21925671 0.15536377
0.15382679 -0.2535794 -0.0916785 0.102747895 -0.06139913 0.047468927 -0.2042122 0.19554675
0.13022706 -0.15533552 -0.17616662 -0.1204955 0.16420758 -0.1674612 -0.031289585 -0.072900526
-0.09393633 -0.31610894 -0.052587807 0.2372317 0.10052642 -0.13783963 -0.16349867 0.2521717
-0.09302331 0.13765357 0.09264425 -0.28959078 -0.40566927 0.06849697 -0.03742436 0.17025551
-0.15468265 -0.2578954 0.3021406 -0.029577814 0.13212235 -0.07648995 0.1276169 -0.120242916
0.07755552 -0.0884429 -0.29467186 -0.041337606 -0.060210027 -0.15369707 0.030104576 0.22660436
-0.11354093 -0.030417103 -0.105900556 -0.058054432 -0.07674905 -0.045572437 -0.028624296 0.13549109
-0.075775914 -0.040453374 -0.04642713 0.28558308 -0.030894395 0.005432277 0.045665547 -0.36200118
-0.33405438 0.15032151 -0.1225745 0.107321665 0.15313211 0.25031495 0.1327854 0.17915441
-0.16569786 -0.16168496 -0.11126196 -0.32404405 0.17863834 -0.16516376 -0.16367011 -0.020807985
0.28152308 0.12799045 0.081932425 0.2479284 0.25593022 0.11585011 -0.13157614 -0.24538481
0.25841442 -0.021352464 0.21351427 -0.029395208 0.039522644 0.29404974 -0.23594548 0.105615646
-0.13563772 -0.10267903 0.18987305 0.07371213 -0.16683713 0.048729368 -0.17681685 0.012331432
0.011452488 0.11371662 0.21075444 -0.24205607 0.031715795 -0.08941977 -0.09228748 0.1736477
-0.0053209765 0.008374055 0.018444428 0.029893396 0.2392728 -0.030189967 0.30167744 -0.13801503
-0.1765056 0.044945687 -0.16062157 0.40793467 -0.14818023 0.2198482 0.30598488 0.03987827
-0.003592307 -0.24521549 0.16821212 0.060264107 -0.2785137 -0.11153717 -0.080067135 0.087497324
-0.10985528 -0.097858876 -0.0198378 0.24596314 -0.08869752 -0.1838836 0.07423303 -0.123064995
0.058021594 -0.2935243 -0.13169107 -0.046997484 0.3438196 -0.11953295 -0.37898374 0.15415253
0.2039141 0.13881145 0.008723491 -0.025213014 0.15091544 0.09112845 -0.044381756 -0.020050347
0.08378475 0.216948 -0.12002002 0.031617094 -0.20320694 0.072785944 0.28725168 -0.04774554
0.0020155497 -0.10459718 -0.015409014 -0.07619171 -0.3515417 -0.07090089 -0.16589504 -0.34145638
0.04265342 0.0116664115 -0.023738336 0.050859235 -0.025406605 -0.30737582 -0.021653242 0.03283693
-0.071282096 0.20768973 0.09436277 0.01294257 0.26608208 0.05536685 0.0004115592 -0.23811778
0.04265294 -0.05914877 0.0037017483 -0.2654367 -0.17597689 0.43677607 -0.09431674 0.07205482
0.06082928 -0.045780957 0.2582711 0.20830022 -0.09489643 0.10214073 0.0036386412 -0.13631415
0.24864349 0.19750568 0.021172903 0.25136945 0.025118629 0.22192998 0.051286224 0.25524926
0.01757877 0.22364427 0.22361013 -0.22123142 0.077929035 0.10278466 -0.08933977 0.1714633
0.28794435 -0.13891442 0.24462187 0.071359664 0.08894273 0.086514756 0.084721 0.20987904
-0.03712099 -0.0799813 0.17324977 -0.03927292 0.2240342 0.04984325 0.19856286 0.14143445
00000000: 8ce2 db3d 9b3e 593e 7dd9 bc3e 9a83 94be
00000010: 4671 40be b7c6 b1ba 5280 f93d 9dfe 0b3d
00000020: 1748 753d a4f2 60bd 5c2c 1dbd b585 67be
00000030: 96b9 40bd 5878 313e d584 60be ae17 1f3e
00000040: c584 1d3e 29d5 81be f0c1 bbbd 7d6d d23d
00000050: a77d 7bbd c76e 423d 011d 51be 683d 483e
00000060: 3e5a 053e 4610 1fbe 0665 34be 58c6 f6bd
00000070: 0826 283e f37a 2bbe 8229 00bd df4c 95bd
00000080: b161 c0bd 08d9 a1be 5066 57bd deec 723e
00000090: cce0 cd3d d525 0dbe 326c 27be a61c 813e
000000a0: 0183 bebd 0ff5 0c3e 45bc bd3d 3e45 94be
000000b0: e2b3 cfbe 2448 8c3d 494a 19bd 7657 2e3e
000000c0: 2165 1ebe de0a 84be 2cb2 9a3e 2c4d f2bc
000000d0: 154b 073e c3a6 9cbd 01ae 023e eb41 f6bd
000000e0: 6ed5 9e3d 8d21 b5bd 3bdf 96be 9f51 29bd
000000f0: ca9e 76bd c462 1dbe df9d f63c f90a 683e
00000100: 2688 e8bd 4a2d f9bc 64e2 d8bd 7cca 6dbd
00000110: 9b2e 9dbd 2aaa 3abd 807d eabc 2dbe 0a3e
00000120: 6730 9bbd 70b2 25bd 602a 3ebd f237 923e
00000130: 3e16 fdbc 3e01 b23b cc0b 3b3d 3858 b9be
00000140: 2d09 abbe e2ed 193e 5708 fbbd 76cb db3d
00000150: aace 1c3e 4829 803e e5f8 073e 4174 373e
00000160: b3ac 29be be90 25be 4fdd e3bd 1ae9 a5be
00000170: f8ec 363e b020 29be 2399 27be 8275 aabc
00000180: cb23 903e ee0f 033e 30cc a73d f1e0 7d3e
00000190: 4909 833e d342 ed3d e5bb 06be 2846 7bbe
000001a0: e54e 843e 5deb aebc 7ca3 5a3e 38ce f0bc
000001b0: 7fe2 213d b08d 963e b19b 71be 044d d83d
000001c0: 9de4 0abe 6249 d2bd 156e 423e 63f6 963d
000001d0: 5ad7 2abe 7298 473d 7a0f 35be c609 4a3c
000001e0: 37a3 3b3c 42e4 e83d 03d0 573e 8cdd 77be
000001f0: 6ce8 013d b621 b7bd 3801 bdbd b4d0 313e
00000200: 965b aebb 5533 093c c518 973c ffe2 f43c
00000210: ee03 753e f350 f7bc 7775 9a3e d053 0dbe
00000220: e2bd 34be f818 383d fb79 24be d0dc d03e
00000230: 8fbc 17be e31f 613e 0daa 9c3e 6657 233d
00000240: e96c 6bbb c519 7bbe cc3f 2c3e 7fd7 763d
00000250: 5999 8ebe 9a6d e4bd 3dfa a3bd cc31 b33d
00000260: cefb e0bd 3c6a c8bd e282 a2bc c3dd 7b3e
00000270: 0ca7 b5bd fc4b 3cbe 7d07 983d 8009 fcbd
00000280: 0da8 6d3d d148 96be 06da 06be 6f80 40bd
00000290: 1f09 b03e b1cd f4bd 280a c2be 29da 1d3e
000002a0: dcce 503e 9724 0e3e f9ec 0e3c 868b cebc
000002b0: 9489 1a3e 8ea1 ba3d a5c9 35bd a040 a4bc
000002c0: 5797 ab3d 9e27 5e3e 0ecd f5bd ed80 013d
000002d0: 7b15 50be cc10 953d a712 933e d490 43bd
000002e0: 5017 043b 0c37 d6bd 1776 7cbc 660a 9cbd
000002f0: 46fd b3be 7c34 91bd 64e0 29be 5fd3 aebe
00000300: 5ab5 2e3d 7a24 3f3c e676 c2bc c651 503d
00000310: 8321 d0bc 5d60 9dbe 2462 b1bc 0480 063d
00000320: 59fc 91bd 9eac 543e 4541 c13d 130d 543c
00000330: e93b 883e 5ac8 623d 8ac6 d739 26d5 73be
00000340: d9b4 2e3d fb45 72bd 0899 723b 52e7 87be
00000350: 4933 34be 1da1 df3e 2329 c1bd 7a91 933d
00000360: 2028 793d d084 3bbd 1c3c 843e a74c 553e
00000370: 0f59 c2bd 292f d13d 4576 6e3b f095 0bbe
00000380: 669c 7e3e ee3e 4a3e cc72 ad3c 7fb3 803e
00000390: 95c5 cd3c 9d41 633e 8111 523d 08b0 823e
000003a0: 5a01 903c 0103 653e 0efa 643e 7d8a 62be
000003b0: 4299 9f3d c480 d23d c5f7 b6bd 1394 2f3e
000003c0: 716d 933e 953f 0ebe 287e 7a3e 0425 923d
000003d0: 9b27 b63d a62e b13d 3482 ad3d 88ea 563e
000003e0: 2e0c 18bd 3ccd a3bd 6368 313e a4dc 20bd
000003f0: 3969 653e 7028 4c3d 1054 4b3e 31d4 103e

policy.mlp_extractor.value_net.0.bias f4 [64]
-0.036726233 -0.035705436 -0.026335169 0.037838727 0.05622693 0.0013291317 0.020366168 0.019389518
0.03317276 -0.028658198 -0.048915792 0.029211633 0.0046498226 -0.003427144 0.027161181 0.012385928
0.020574456 -0.024867654 0.041998807 0.0016489129 0.02854246 0.031490106 0.028224025 0.01319229
-0.039818987 0.014331082 -0.010705494 0.0377705 -0.029885316 0.0042334856 -0.0424904 -0.068431824
0.03500454 -0.033561192 -0.049292974 -0.049147442 0.01632828 0.014848087 -0.018887054 0.033255234
0.035577193 -0.036334243 0.03784946 -0.011605049 0.0064290636 0.057429254 0.02765174 -0.0065874094
-0.024340404 0.015079637 -0.04085457 -0.040916763 0.042071722 -0.02631912 0.0031534028 0.037130702
0.030521026 0.008805086 0.03251976 0.037941027 0.02151431 -0.017156081 0.04098207 0.049867064
00000000: 3f6e 16bd dd3f 12bd dabc d7bc c8fc 1a3d
00000010: 364e 663d 4236 ae3a f3d6 a63c c4d6 9e3c
00000020: 29e0 073d 99c4 eabc ed5b 48bd 3c4d ef3c
00000030: 8a5d 983b ef99 60bb 2081 de3c 59ee 4a3c
00000040: c38b a83c 40b7 cbbc f106 2c3d 5620 d83a
00000050: e1d1 e93c c5fb 003d 1236 e73c 7a24 583c
00000060: 3c19 23bd eacc 6a3c 1966 2fbc 3db5 1a3d
00000070: 0dd2 f4bc 0db9 8a3b 6a0a 2ebd fc25 8cbd
00000080: ec60 0f3d 7677 09bd 6ee7 49bd d44e 49bd
00000090: e3c2 853c 6445 733c 06b9 9abc a436 083d
000000a0: 64b9 113d 37d3 14bd 0908 1b3d 1a23 3ebc
000000b0: e5aa d23b f03a 6b3d e785 e23c 32db d7bb
000000c0: 8765 c7bc 9510 773c 1f57 27bd 5698 27bd
000000d0: 6653 2c3d 329b d7bc 52a9 4e3b 5d16 183d
000000e0: 3b07 fa3c 3543 103c 7133 053d 0d68 1b3d
000000f0: c73e b03c e98a 8cbc d1dc 273d 6841 4c3d

policy.mlp_extractor.value_net.2.weight f4 [64, 64]
-0.027912151 0.07250944 -0.29666853 -0.059272334 0.004275613 -0.36861366 0.032479823 -0.23481722
-0.08627523 0.09250244 0.10285859 -0.31228432 -0.2283493 -0.053902283 0.11150409 0.20038252
0.07704586 -0.002687338 0.01649726 -0.13630986 -0.3197345 0.06435232 -0.2944121 -0.13974242
-0.025210109 0.28057477 -0.00024359688 -0.0073130657 0.21756491 -0.17686176 -0.044075996 0.12627393
-0.28572723 0.052573416 0.08279009 0.3999335 -0.3082649 -0.002318535 0.051197987 0.07936997
0.10345122 -0.1415742 -0.051904615 -0.14915366 0.21235819 0.40095374 0.07255615 -0.038079806
0.2028414 0.055321086 0.29774535 0.009651891 0.0827729 -0.048131485 0.14856529 0.018037949
-0.05485669 0.31184646 -0.15821493 -0.18753009 0.060082566 0.16915752 -0.19766591 0.09440528
-0.020612 -0.094854325 -0.1441648 0.09729137 -0.12603223 0.17966479 -0.15206127 -0.27800137
-0.092223905 -0.21699856 -0.09949547 0.20648299 0.013717024 0.42915592 0.1217449 0.12540632
-0.11908675 0.31520236 -0.37802482 0.34049064 -0.31410015 -0.03997812 0.1011949 -0.1361071
-0.17726512 0.27540103 -0.05261181 0.057173483 -0.12798087 -0.1826812 -0.16295785 0.0066904128
0.06332471 -0.0042583696 0.18741797 -0.049269553 -0.12336628 -0.18523948 -0.21772361 0.23943992
0.045525033 -0.14279908 0.16449043 -0.10237106 0.042647645 0.018630108 0.26425952 0.29092115
0.02493174 -0.038300447 0.18545854 -0.029845152 0.1094006 0.18287736 0.020406853 -0.2039543
0.09864656 -0.10726578 0.023482794 0.17026669 -0.18063298 -0.29858315 0.088817246 -0.1903021
-0.0045758504 -0.078076616 0.112288475 0.07807473 0.021579424 -0.02667122 0.2760053 -0.2725351
-0.1464575 -0.037186347 -0.05555986 0.10152717 0.34246948 -0.16451488 -0.2122969 -0.2685022
0.119981825 0.021728013 0.263818 0.3685681 0.18058863 -0.13920447 -0.0054985117 0.04124156
0.040728513 0.093609214 -0.14427668 0.106043175 -0.062224176 -0.13532218 -0.11889935 0.10438051
-0.2900627 0.121613614 0.25224653 0.10072049 -0.15629476 -0.25932226 0.10082637 0.048685078
0.47325313 0.46972984 -0.06009581 -0.02412242 -0.32801226 0.09259152 -0.07734367 0.14555557
0.045766715 -0.018543622 0.00030837324 -0.004790743 -0.10215 -0.14421706 -0.10905817 -0.12225589
0.25540453 -0.04390889 -0.2280494 0.05304443 0.26326868 -0.10945229 -0.14832644 0.052680496
-0.111384846 0.14896509 0.14177167 0.21225451 -0.05153174 -0.23319803 -0.07995435 -0.06294361
0.25908 0.053469025 0.17317724 -0.21206468 0.010992096 -0.006487926 -0.17695536 -0.04725315
-0.09040686 0.21962689 0.12681295 -0.1542763 -0.21740632 -0.1341211 -0.03665363 0.19977757
-0.100506 0.08921884 0.26561576 0.31452733 0.0142854685 -0.0022182956 0.0589483 -0.06482472
0.28822476 0.24831584 -0.04410952 0.22339915 0.54816574 -0.068577416 0.021110665 0.2250152
-0.017579744 0.083349876 -0.30910146 0.3006764 -0.113636695 0.27958906 0.18844669 0.12740879
0.23685355 -0.21964777 -0.002775402 -0.06653938 -0.12489586 0.253205 -0.21900845 -0.06852528
-0.0048722955 -0.15404539 0.027285233 0.2730856 -0.058353603 -0.020622863 -0.11084559 0.06605725
00000000: 06a8 e4bc d47f 943d f0e4 97be 8cc7 72bd
00000010: 711a 8c3b eeba bcbe 9009 053d ed73 70be
00000020: 11b1 b0bd eb71 bd3d 86a7 d23d bbe3 9fbe
00000030: 66d4 69be a4c8 5cbd 425c e43d 1331 4d3e
00000040: 38ca 9d3d 0d1e 30bb 4325 873c d094 0bbe
00000050: 3eb4 a3be 26cb 833d 2fbd 96be a318 0fbe
00000060: 6e85 cebc 7fa7 8f3e 0a6e 7fb9 71a2 efbb
00000070: 56c9 5e3e 401b 35be 0889 34bd f44d 013e
00000080: d74a 92be 3957 573d da8d a93d 15c4 cc3e
00000090: e6d4 9dbe 90f2 17bb fbb4 513d b98c a23d
000000a0: 3cde d33d d4f8 10be ef99 54bd bdbb 18be
000000b0: 6d74 593e cf49 cd3e 5298 943d 92f9 1bbd
000000c0: a8b5 4f3e 5d98 623d 1472 983e f722 1e3c
000000d0: d784 a93d 8525 45bd 8021 183e 52c4 933c
000000e0: 69b1 60bd 57aa 9f3e 1803 22be e307 40be
000000f0: 2319 763d a137 2d3e ef68 4abe 8e57 c13d
00000100: 7fda a8bc fc42 c2bd f09f 13be b340 c73d
00000110: 980e 01be 0cfa 373e f3b5 1bbe 3256 8ebe
00000120: e3df bcbd df34 5ebe 48c4 cbbd 4770 533e
00000130: 5ebd 603c 53ba db3e 6455 f93d 846a 003e
00000140: c1e3 f3bd 3462 a13e 788c c1be ca54 ae3e
00000150: bcd1 a0be 19c0 23bd 463f cf3d a95f 0bbe
00000160: fd84 35be 5d01 8d3e 7b7f 57bd be2e 6a3d
00000170: 6b0d 03be c810 3bbe 6cde 26be 403b db3b
00000180: 63b0 813d cb89 8bbb 7fea 3f3e dfce 49bd
00000190: 76a7 fcbd 6baf 3dbe f0f2 5ebe bd2f 753e
000001a0: 7578 3a3d ec39 12be 2e70 283e eba7 d1bd
000001b0: 4caf 2e3d 2b9e 983c 064d 873e 9ef3 943e
000001c0: a63d cc3c eee0 1cbd d8e8 3d3e d27d f4bc
000001d0: 6c0d e03d 3444 3b3e 462c a73c 65d9 50be
000001e0: 3507 ca3d 29ae dbbd fd5e c03c 645a 2e3e
000001f0: daf7 38be e4df 98be d1e5 b53d 8ede 42be
00000200: 04f1 95bb a2e6 9fbd 80f7 e53d a5e5 9f3d
00000210: 55c7 b03c 9a7d dabc 9150 8d3e b889 8bbe
00000220: f4f8 15be b650 18bd bc92 63bd 7aed cf3d
00000230: 2958 af3e 9776 28be 5c64 59be 1f79 89be
00000240: 08b9 f53d f2fe b13c 2713 873e f5b4 bc3e
00000250: 3aec 383e 9e8b 0ebe dc2c b4bb e9ec 283d
00000260: f1d2 263d 30b6 bf3d 44bd 13be 2a2d d93d
00000270: c7de 7ebd e691 0abe 8181 f3bd 73c5 d53d
00000280: 1983 94be 8f10 f93d 7526 813e 8b46 ce3d
00000290: bc0b 20be e3c5 84be 0e7e ce3d 016a 473d
000002a0: 3c4e f23e 6e80 f03e 0627 76bd 629c c5bc
000002b0: 39f1 a7be 9fa0 bd3d 5c66 9ebd 850c 153e
000002c0: e175 3b3d cbe8 97bc 28ad a139 aafb 9cbb
000002d0: 0534 d1bd a3ad 13be e459 dfbd 4c61 fabd
000002e0: 62c4 823e cfd9 33bd c885 69be 1e45 593d
000002f0: 27cb 863e 8628 e0bd e3e2 17be 81c7 573d
00000300: bd1d e4bd 4e8a 183e 982c 113e 3f59 593e
00000310: f212 53bd 77cb 6ebe 1bbf a3bd 94e8 80bd
00000320: 22a6 843e 5602 5b3d 6055 313e 7c27 59be
00000330: 3118 343c ab98 d4bb c933 35be 858c 41bd
00000340: 3b27 b9bd dfe5 603e 41db 013e 9bfa 1dbe
00000350: c39f 5ebe 0b57 09be 1e22 16bd 7e92 4c3e
00000360: 17d6 cdbd 5eb8 b63d cafe 873e ba09 a13e
00000370: 990d 6a3c d360 11bb c673 713d d3c2 84bd
00000380: 3292 933e 8246 7e3e 2fac 34bd bfc2 643e
00000390: 9754 0c3f 5172 8cbd 46f0 ac3c 626a 663e
000003a0: 6503 90bc 57b3 aa3d 8c42 9ebe 42f2 993e
000003b0: 5bba e8bd 4c26 8f3e 2bf8 403e 7377 023e
000003c0: bd89 723e 58eb 60be 85e3 35bb cc45 88bd
000003d0: 67c9 ffbd 16a4 813e c043 60be fb56 8cbd
000003e0: c7a7 9fbb 13be 1dbe 4885 df3c e0d1 8b3e
000003f0: 3004 6fbd 47f1 a8bc 0303 e3bd 0649 873d

policy.mlp_extractor.value_net.2.bias f4 [64]
-0.03894168 0.038600955 -0.039038893 -0.03762472 0.040019576 -0.037419003 0.0379761 -0.028690046
0.03781288 0.039454665 -0.03012879 0.030826332 0.050101917 0.038341064 0.041545548 -0.039567728
-0.043649945 -0.03603903 -0.036783442 0.039359458 0.03314234 0.03845377 0.03853289 -0.037922777
-0.04006283 -0.040464144 -0.035909712 0.03777964 -0.03887365 -0.036242567 -0.03730162 0.037447486
0.039654545 0.019202994 -0.039638966 -0.038818505 0.039503317 0.014609617 0.034843255 0.038884405
-0.038213994 -0.0057959994 0.002124038 -0.038867794 -0.042003542 0.040162254 -0.038879797 0.038626958
-0.039868273 -0.037528154 -0.05481064 0.036890283 0.036426548 -0.037490975 0.030181035 0.026008843
0.038034935 -0.03536766 0.033889838 -0.038321283 -0.03631679 -0.008302072 0.042561248 0.03463093
00000000: 5081 1fbd 091c 1e3d 3fe7 1fbd 611c 1abd
00000010: 91eb 233d ab44 19bd d48c 1b3d 6307 ebbc
00000020: aee1 1a3d 379b 213d a7d0 f6bc 8187 fc3c
00000030: ab37 4d3d 850b 1d3d aa2b 2a3d c511 22bd
00000040: 49ca 32bd a99d 13bd 3caa 16bd 6237 213d
00000050: 43c0 073d b381 1d3d aad4 1d3d ea54 1bbd
00000060: ec18 24bd bbbd 25bd 1016 13bd d3be 1a3d
00000070: fa39 1fbd 1673 14bd 95c9 18bd 8962 193d
00000080: ce6c 223d 994f 9d3c 785c 22bd 2700 1fbd
00000090: 3bce 213d 2d5d 6f3c cdb7 0e3d 4145 1f3d
000000a0: 4786 1cbd 5eec bdbb 7233 0b3b d633 1fbd
000000b0: e80b 2cbd 2d81 243d 6c40 1fbd 4d37 1e3d
000000c0: ea4c 23bd 1fb7 19bd 1f81 60bd 441a 173d
000000d0: 0134 153d 2390 19bd 383e f73c 7f10 d53c
000000e0: 85ca 1b3d aedd 10bd 12d0 0a3d c7f6 1cbd
000000f0: eac0 14bd 6a05 08bc b454 2e3d 29d9 0d3d

policy.action_net.weight f4 [4, 64]
0.008893377 -0.18707736 0.22594337 -0.011513036 -0.067053676 0.13638876 -0.13062228 -0.014948687
0.2535372 -0.053832874 -0.18212795 -0.13215876 0.08618382 -0.001429804 0.18179162 0.19921874
0.12680078 0.05375379 0.11488546 0.23327924 -0.14586796 0.19150932 0.056163162 -0.12138653
0.1867054 -0.20427442 0.24063009 -0.1883699 0.095482305 0.06379197 0.1450692 0.111989565
-0.22713475 0.08566851 0.077902004 -0.018619258 -0.20848627 -0.033460513 0.05152338 0.068782024
0.14640169 0.16367728 0.043794703 0.16346715 -0.046157762 -0.10610122 0.10766138 0.015202911
0.1318412 -0.14111128 -0.20071782 0.05260979 0.01006407 -0.16037494 -0.0758664 -0.11917677
0.18200785 -0.21124697 0.17347422 0.09788773 0.16832256 0.15219358 0.0684914 -0.16882089
-0.2412973 -0.04348361 -0.05878151 0.113842405 0.07176992 0.03488415 0.2039104 -0.025229845
-0.16267039 0.06816093 0.03563984 -0.008046925 0.06820379 0.19575353 -0.09290057 -0.17197071
-0.20553774 -0.013932217 0.0961378 -0.07251952 0.14838359 -0.059028648 0.056568034 -0.15301988
0.0035611982 0.06896958 -0.08073579 0.0515538 0.027957976 -0.07765986 -0.07597372 -0.053304113
0.06294248 0.017279595 -0.04704275 -0.20987138 0.099508084 0.2340286 -0.008057348 0.09979266
-0.07140265 -0.10343187 0.12519354 -0.07790302 -0.038284197 -0.06255614 -0.06780014 0.02014764
-0.24829014 0.29049632 0.19197258 -0.041611977 0.1158923 0.050285943 0.05290487 -0.05647889
-0.00038436314 -0.02309772 -0.13808218 -0.26596555 0.029639646 -0.06962542 0.016797608 0.08145798
0.08671945 0.15709503 -0.112172075 0.06280345 -0.11350312 -0.06738452 -0.08165132 -0.12383686
-0.033030245 0.08299379 0.10864069 -0.012424389 0.022543268 -0.029860443 -0.094692856 -0.048126325
0.12296866 -0.13102171 -0.13947514 -0.081403755 -0.0877375 -0.12094461 -0.043706816 0.14240424
-0.069985345 0.056158267 -0.097619995 -0.0069188233 0.020578654 -0.099714026 -0.09874391 0.08927695
0.05526841 -0.054726616 -0.13733701 0.18626978 0.029734047 -0.10447111 0.12109834 -0.05002214
-0.2025918 -0.0026863187 0.0221415 -0.14889166 0.15272571 0.13635588 -0.13271926 0.05019671
0.13263392 -0.11645582 -0.022799166 -0.10047325 0.013437132 -0.027449783 0.08719627 -0.01287432
-0.074926995 0.10037705 -0.094388716 0.029825386 -0.025689881 -0.04118766 -0.16911417 -0.004120487
0.20417263 0.044990376 0.022224514 -0.24891716 0.17896642 -0.10608668 0.0022726925 0.25601628
-0.050961077 -0.21004722 -0.03367666 0.22416748 -0.2575651 -0.24526988 0.14006926 0.11109381
-0.084554166 0.17137514 -0.060119838 -0.042591505 0.12393749 0.0671897 -0.0950544 0.12216895
-0.10987415 0.029118402 -0.016653968 0.15919721 -0.21713144 0.2350095 0.060725726 -0.21005712
0.118543714 -0.011574942 0.21121393 0.013253405 0.054280188 -0.13703667 -0.21863735 -0.1740529
0.22146794 -0.049982175 -0.2951284 0.18670948 -0.11521813 -0.00052397506 0.22458963 -0.15041517
0.0025811298 -0.022246948 0.029877756 0.18037194 -0.22288308 0.137958 -0.1710847 0.29511675
-0.115129635 0.16279684 0.19801947 0.22831082 -0.20993845 -0.03455687 0.11548061 0.120221645
00000000: 87b5 113c 3591 3fbe b35d 673e 2ca1 3cbc
00000010: 7053 89bd 7fa9 0b3e d9c1 05be 56eb 74bc
00000020: a1cf 813e dc7f 5cbd c07f 3abe a054 07be
00000030: 2581 b03d 4368 bbba 9527 3a3e ffff 4b3e
00000040: 10d8 013e ef2c 5c3d 1149 eb3d c1e0 6e3e
00000050: 695e 15be 051b 443e 580b 663d 8099 f8bd
00000060: b32f 3f3e 502d 51be bc67 763e 0ae4 40be
00000070: 3a8c c33d 5da5 823d 058d 143e c95a e53d
00000080: 0396 68be f972 af3d 168b 9f3d 6a87 98bc
00000090: 6d7d 55be e40d 09bd 2e0a 533d 97dd 8c3d
000000a0: 53ea 153e 049b 273e 1362 333d ef63 273e
000000b0: ec0f 3dbd 994b d9bd 927d dc3d a115 793c
000000c0: 6101 073e 7a7f 10be f988 4dbe 5d7d 573d
000000d0: c5e3 243c 5439 24be d85f 9bbd f312 f4bd
000000e0: 4460 3a3e 2051 58be 3aa3 313e 5d79 c83d
000000f0: c05c 2c3e a2d8 1b3e 3845 8c3d 62df 2cbe
00000100: a416 77be df1b 32bd e1c4 70bd 3526 e93d
00000110: 1cfc 923d afe2 0e3d e3cd 503e d2ae cebc
00000120: 1193 26be f597 8b3d 15fb 113d 40d7 03bc
00000130: 6eae 8b3d 9d73 483e a742 bebd 1719 30be
00000140: 7c78 52be f443 64bc e5e3 c43d 1d85 94bd
00000150: def1 173e 06c8 71bd e2b3 673d 3eb1 1cbe
00000160: fe62 693b ec3f 8d3d ce58 a5bd 142a 533d
00000170: 2008 e53c 220c 9fbd 1c98 9bbd 6a55 5abd
00000180: fde7 803d f08d 8d3c e6af 40bd 86e8 56be
00000190: e5ca cb3d 31a5 6f3e f802 04bc 1860 cc3d
000001a0: 8d3b 92bd 17d4 d3bd bc32 003e 9e8b 9fbd
000001b0: e4cf 1cbd 6f1d 80bd cdda 8abd aa0c a53c
000001c0: c53f 7ebe efbb 943e 7694 443e 5271 2abd
000001d0: f158 ed3d a2f8 4d3d c7b2 583d 6956 67bd
000001e0: 5984 c9b9 6e37 bdbc 6a65 0dbe a32c 88be
000001f0: d8ce f23c c697 8ebd 239b 893c 71d3 a63d
00000200: f899 b13d 85dd 203e 79ba e5bd 189f 803d
00000210: 5374 e8bd e500 8abd cf38 a7bd 2e9e fdbd
00000220: b94a 07bd a6f8 a93d 037f de3d aa8f 4bbc
00000230: a9ac b83c e39d f4bc 54ee c1bd 1c20 45bd
00000240: fed6 fb3d 8e2a 06be 92d2 0ebe 03b7 a6bd
00000250: b8af b3bd cfb1 f7bd eb05 33bd 6bd2 113e
00000260: 7a54 8fbd 3606 663d feec c7bd 4cb7 e2bb
00000270: 9194 a83c de36 ccbd 3f3a cabd d5d6 b63d
00000280: 2161 623d 0429 60bd 13a2 0cbe 81bd 3e3e
00000290: d194 f33c f3f4 d5bd 6802 f83d 04e4 4cbd
000002a0: 3a74 4fbe f30c 30bb 1762 b53c 0e77 18be
000002b0: 2164 1c3e e0a0 0b3e 8fe7 07be 119b 4d3d
000002c0: 30d1 073e 6480 eebd 51c5 babc ebc4 cdbd
000002d0: 6b27 5c3c 5ede e0bc f593 b23d d0ee 52bc
000002e0: 5373 99bd 7c92 cd3d df4e c1bd 5e54 f43c
000002f0: 9673 d2bc 64b4 28bd 442c 2dbe 2605 87bb
00000300: a112 513e d447 383d 2f10 b63c 24e4 7ebe
00000310: f942 373e f943 d9bd 74f1 143b 9114 833e
00000320: 90bc 50bd 9e16 57be 8af0 09bd 298c 653e
00000330: 93df 83be 0728 7bbe 516e 0f3e 2785 e33d
00000340: bc2a adbd f77c 2f3e 3840 76bd 6e74 2ebd
00000350: f0d2 fd3d c19a 893d e2ab c2bd b733 fa3d
00000360: b305 e1bd b789 ee3c e76d 88bc 9804 233e
00000370: b457 5ebe 55a6 703e 8abb 783d 3719 57be
00000380: 0cc7 f23d d3a4 3dbc 7748 583e cf24 593c
00000390: e754 5e3d 5753 0cbe 78e2 5fbe ec3a 32be
000003a0: 7ec8 623e 1cba 4cbd 121b 97be c530 3f3e
000003b0: 7cf7 ebbd 5f5b 09ba d3fa 653e 6f06 1abe
000003c0: 2c28 293b 3b3f b6bc 32c2 f43c 6cb3 383e
000003d0: 763b 64be dd44 0d3e d430 2fbe 8b19 973e
000003e0: 16c9 ebbd 37b4 263e 9ec5 4a3e 50ca 693e
000003f0: 1bfa 56be 818b 0dbd 1981 ec3d c436 f63d

policy.action_net.bias f4 [4]
0.026348494 -0.042712923 0.017413193 -0.0068877083
00000000: ccd8 d73c bff3 2ebd 1da6 8e3c 49b2 e1bb

policy.value_net.weight f4 [1, 64]
-0.15881093 0.08923085 -0.101339206 -0.09275892 0.034195833 -0.07923484 0.100642 -0.024333175
0.06364516 0.14872408 -0.0016667156 0.020901235 -0.0035453693 0.061137345 0.009120289 -0.14048626
-0.011973711 -0.050318073 -0.06805841 0.09953361 0.0353243 0.04410763 0.10272182 -0.13846868
-0.09598159 -0.23793507 -0.06990086 0.109650895 -0.035580892 -0.026350418 -0.06629848 0.11698378
0.21507774 0.00044430394 -0.11758435 -0.19402787 0.15670137 0.0015876181 0.029410653 0.12375438
-0.12665835 -0.0018260188 -0.000874952 -0.20720331 -0.03570441 0.19379692 -0.15094654 0.1017239
-0.1563375 -0.0739429 0.0010330499 0.08141049 0.085493326 -0.065668605 0.00070431415 0.0025523892
0.106917836 -0.046106886 0.05852032 -0.09009604 -0.06280484 0.0055245645 0.11433772 0.0010718834
00000000: 559f 22be aabe b63d ee8a cfbd 63f8 bdbd
00000010: ee10 0c3d e045 a2bd 651d ce3d 5e56 c7bc
00000020: 6558 823d 204b 183e b275 daba 1139 ab3c
00000030: 6d59 68bb 276b 7a3d 446d 153c a1db 0fbe
00000040: 622d 44bc 531a 4ebd 3562 8bbd 47d8 cb3d
00000050: 37b0 103d 34aa 343d d15f d23d bcca 0dbe
00000060: ff91 c4bd 40a5 73be 2f28 8fbd a690 e03d
00000070: 45bd 11bd d5dc d7bc 7fc7 87bd 3195 ef3d
00000080: 573d 5c3e 77f1 e839 10d0 f0bd 3eaf 46be
00000090: 5376 203e a017 d03a 9cee f03c f072 fd3d
000000a0: bab2 01be 0657 efba 095d 65ba 1b2d 54be
000000b0: ca3e 12bd b372 463e bb91 1abe 9f54 d03d
000000c0: f016 20be 606f 97bd 6767 873a 8bba a63d
000000d0: 2017 af3d 437d 86bd b9a1 383a fc45 273b
000000e0: bdf7 da3d 93da 3cbd 01b3 6f3d 4684 b8bd
000000f0: d39f 80bd 6807 b53b e529 ea3d 707e 8c3a
