cartesi-onnx-template/nn.onnx (onnx, 49643 bytes, 11 tensors)

policy.mlp_extractor.policy_net.0.weight f4 [64, 16]
00000000: d5cb 8fbd 448c 53be f1af 473c 5c5b 0f3c
00000010: 26cf c53c ab5e 6cbe 3417 273e 6f3c d4bd
00000020: 311c e7bd b960 013e e36c 5cbc ee10 573d
00000030: f7e7 52be 35b3 fa3e 9a08 b73c 2e26 41be
00000040: 7e44 79be b849 bdbd d50b 1b3d 7496 293e
00000050: 43b9 9f3c 7d93 1fbe 5d82 f13e fc7c 8bbd
00000060: 3745 bbbb 1023 1c3d 1a95 92be 8360 9e3e
00000070: 48f7 033e 1605 52be 30b5 043e a543 f83d
00000080: 5d31 153e 10b8 88be 47c9 2dbe bd39 c43d
00000090: 6985 e0bb 63be 6b3e 2066 983d 0e26 8ebe
000000a0: 832b 1e3d 79d0 6e3e ce04 00be 96bc 8b3d
000000b0: b196 933d 5b1e c5bd a6bd b5be dec2 db3c
000000c0: 2e21 35bd 22af 6ebd 2b78 5b3c 0822 2a3e
000000d0: ebf9 2dbc 1beb 6bbe a566 bd3d eed9 1bbe
000000e0: 0ffc 6fbe 5e7e cb3d 36ab f13d df12 67be
000000f0: c499 e73d 0122 ab3e b74a 36bd 43f4 153e
00000100: 9e7e 26bb 5f07 133d ec9b 1dbe e580 fd3e
00000110: 3385 9ebd ed0b 443e 023f c63d 6078 79be
00000120: 365f 643e 2ecc 10be 8fe3 7fbe 3617 f3bc
00000130: 9c0a bcbd f52d 093e 863e 7c3e e0b4 c93d
00000140: bca3 82be 1878 63be ba9a 3e3e 7bea 953e
00000150: 527e d6be 795a 03be d2e4 1cbe 5619 7ebe
00000160: 1cf2 a13d fad2 f03d 495d 8c3e 8a02 403d
00000170: ff24 0bbe 241a a2bd 4dba e63b d60e f2be
00000180: 2350 4c3e f6f3 80bd 9d47 53be 56ac ee3d
00000190: 1011 813e 9f64 6abd 56eb eabe 8545 a7be
000001a0: 04c2 d33d 9c5d a13a 4395 843e 0809 923d
000001b0: a7af 8d3e e817 213e 1f42 08be ae89 73be
000001c0: 436d d0bc 4ae4 8bbd 65b5 8cbd fcbe 5f3d
000001d0: c5bc b23d 1409 9cbc 7cfb dd3c 482c 75be
000001e0: 5e76 433d b2ec 203d 98c9 a6bd 73ae 8a3d
000001f0: 1768 3d3d 3906 5f3e 2f06 eb3b abd0 023e
00000200: 375d 843e e60d a7bd f774 583d 9375 353e
00000210: a4e1 903c 1a88 283d 33e3 ee3d b09a bd3d
00000220: 14e1 613e 0a44 093d 0e9f aa3e 579d 31bd
00000230: ae20 c6bb 6755 243e 77f9 2ebe 8ff6 cfbd
00000240: a2c0 eb3d e87e 393d abdf 7fbd 9f83 1a3e
00000250: c27a 803e 9558 103d b36c 1ebe fff3 783e
00000260: 8a02 a8bd 3472 b83e 4c4e 81be 6cdc f3bb
00000270: 242f 4dbe d9c1 18be 4b70 453e f09d 57be
00000280: c2c1 c7be e1e5 17bb b1ca 563b 0e54 ce3d
00000290: 144e 0abe 394d a6bd d223 3e3c 4c89 413e
000002a0: 18db a6be 5378 533e 394d 7a3d 955e 783d
000002b0: c4fa 27be 1bc9 1ebd e28f 73be e443 9f3e
000002c0: 8a7f a73c d330 64be f30b 063e 74cc 39be
000002d0: 67e3 873e ae2b 453e f714 f6bc 377e d13d
000002e0: b494 2cbe d54d 1ebe 2812 1cbe 6b66 9e3c
000002f0: afcf 0ebd d2d0 403e 3b43 8ebe 1789 473d
00000300: 2222 42bd e9d3 7036 68b5 9d3e 8419 45be
00000310: 9d21 443e d0b1 1d3e c529 893d f3e8 22bd
00000320: 1f3e 313e e31c 9e3d 0530 aabd 5fd8 d93d
00000330: 7fb6 bcbc 44bb 80bd 3ef3 28be 21e6 cbbc
00000340: c326 cc3d 2cb7 3e3e 38c8 9bbe 9e08 37be
00000350: 375a 8fbe 503d 15bd 8ccb 21be 741c af3d
00000360: 4cc1 06be 5e63 98be 5152 f4bb d576 94ba
00000370: 8e77 a53d af9b d63b 13d8 1e3e c001 443e
00000380: 824c 063e 8390 183d 4e9e 713e 4a6f 433d
00000390: 3325 2cbe d328 72be aac7 7fbd e55c c0bc
000003a0: 0f87 973d 90e0 c5be cf79 40be a5c9 a7be
000003b0: 22fe 493e 0c6f a9be 2182 fa3d 6c61 bb3d
000003c0: 7358 2cbe 52f7 99bd 5116 aabd 9b98 983e
000003d0: 5f37 13be 7cc1 1f3e 76c7 81be acdc 213e
000003e0: 9940 89bd 9840 28be 64d2 51be 0380 23be
000003f0: 2f32 05be 3e0a d2bd 757b ea3d 389a 723d
-0.070213 -0.20658976 0.012187944 0.008749809 0.024146628 -0.23082988 0.16317445 -0.10363089
-0.11284674 0.12634553 -0.013453695 0.05250638 -0.205963 0.4896485 0.022342969 -0.1886222
-0.24342534 -0.09242576 0.03785308 0.165613 0.01949752 -0.15583606 0.47169772 -0.06810948
-0.005715038 0.038119376 -0.2862938 0.30933008 0.12887299 -0.20509753 0.12959743 0.12122277
0.14569612 -0.2670293 -0.16971312 0.09581325 -0.006851841 0.23021846 0.07441354 -0.27763408
0.038615715 0.23321714 -0.12501833 0.06823079 0.072064765 -0.096249305 -0.35496253 0.026826318
-0.044221096 -0.05827249 0.0133953495 0.16614544 -0.010618667 -0.23038904 0.092480935 -0.15219852
-0.23435996 0.09936212 0.11800234 -0.22565793 0.11308625 0.3342438 -0.044504847 0.1464396
-0.002540506 0.0358957 -0.1539151 0.495124 -0.077402495 0.19145174 0.096799865 -0.24362326
0.22301945 -0.14140388 -0.2498915 -0.029674154 -0.09181711 0.13396437 0.24633226 0.09848952
-0.25515544 -0.22213781 0.18613711 0.29280457 -0.4189325 -0.12827481 -0.15321663 -0.24814352
0.07907507 0.117589906 0.2741492 0.04687742 -0.13588332 -0.07915142 0.0070412518 -0.47276944
0.19952445 -0.06296532 -0.20632787 0.11653964 0.2520833 -0.057224866 -0.45882672 -0.32670227
0.1033974 0.0012311223 0.25895128 0.07130629 0.27673075 0.15731776 -0.13306473 -0.2378299
-0.025442725 -0.06830652 -0.06870536 0.054625496 0.08727411 -0.019047298 0.027097456 -0.23942673
0.047720306 0.03928823 -0.0814392 0.06771555 0.046241846 0.21779718 0.007172368 0.12774913
0.25852367 -0.08156948 0.05284592 0.17720632 0.017685719 0.04114542 0.116644286 0.0925802
0.22058517 0.033512153 0.33324474 -0.04336294 -0.006046376 0.16048203 -0.17087351 -0.10154449
0.11511351 0.045287043 -0.062469166 0.15089272 0.25093657 0.03524073 -0.15471153 0.24311827
-0.08203609 0.3602463 -0.25255048 -0.007442048 -0.20037514 -0.14917697 0.19281118 -0.21056342
-0.39015013 -0.002317779 0.0032774622 0.10074626 -0.13506347 -0.08120198 0.01160522 0.18900031
-0.3258903 0.20651369 0.0611088 0.060637075 -0.16404253 -0.038766008 -0.23785356 0.31106484
0.020446558 -0.2228425 0.13090496 -0.18144399 0.26540682 0.19254944 -0.030039294 0.10229152
-0.168536 -0.15459378 -0.15241301 0.019335946 -0.03486603 0.18829659 -0.27785668 0.048714723
-0.047395833 3.5886135e-06 0.30802464 -0.19248015 0.19153447 0.15399861 0.0669742 -0.03977294
0.17308854 0.077203535 -0.0830994 0.10636973 -0.02303624 -0.06285718 -0.1649904 -0.024890007
0.09968331 0.18624562 -0.30426192 -0.17874381 -0.27998516 -0.036435425 -0.15800303 0.08550349
-0.13159674 -0.2976331 -0.007456102 -0.0011326919 0.08079444 0.0065493206 0.15512113 0.19141293
0.13115123 0.037247192 0.23595545 0.047713555 -0.16811065 -0.23648386 -0.062446274 -0.023481796
0.07398807 -0.3864789 -0.18796466 -0.3277103 0.1972585 -0.33092535 0.12231851 0.09149441
-0.16830616 -0.07517876 -0.08305038 0.2980393 -0.14376591 0.15601152 -0.2534749 0.15806836
-0.06701774 -0.1643089 -0.20490414 -0.15966801 -0.13007425 -0.1025586 0.11449329 0.059229106

policy.mlp_extractor.policy_net.0.bias f4 [64]
00000000: 75fb 31bc 2006 65bc aab8 82bc b1cb 75bc
00000010: b7fd 813b f823 d1bc 70d5 b03c 9cb2 763c
00000020: 5dcd 583c d708 a43c 5daf f1bc e1db 96bb
00000030: 38a8 993c c45f e4bb 9420 803a 8471 f7bc
00000040: 21ed ef3a 382e b3bb dce6 203c d28a d0bc
00000050: ec59 d93c 217a 02bc 1840 c43c 1f4c 633c
00000060: c626 99bc d9c0 c8bc e017 783c 1988 d8bc
00000070: 61e8 3d3c 750c c93c 72e4 c5bc 293f e43c
00000080: 1d37 ba3c 905a d9bc f697 b8bb b43e c73c
00000090: 3f8e b03c 8830 7cbb 04fb c5bc 4929 b33c
000000a0: 8870 05bc cf48 f93c d369 88bc 1fc0 c43c
000000b0: 4cb0 5d3c dc2c 233b 24bc bdbc fd6c b43b
000000c0: c276 aa3c 0989 92bb 044c 33bc 505e c13c
000000d0: 1427 813c b131 33bc 62fe 7b3c b5b4 da3b
000000e0: 01d8 e23a ca61 fbbb 0abf b83c bc16 9b3c
000000f0: 54ec 0ebc 9ca2 82bc bef2 8abc 9f26 2fbc
-0.010863175 -0.013978511 -0.015957195 -0.015002177 0.0039670127 -0.025529847 0.02158615 0.015057232
0.013232556 0.020023746 -0.029502565 -0.0046038483 0.01875697 -0.006969424 0.0009775334 -0.030205496
0.0018304923 -0.005468156 0.009820666 -0.02545682 0.026532136 -0.007963688 0.023956344 0.013873129
-0.018695246 -0.02450602 0.015142411 -0.026432084 0.011591048 0.024542073 -0.024156783 0.027862148
0.022731358 -0.026532441 -0.0056333495 0.024321891 0.021552203 -0.0038481075 -0.024167545 0.021870272
-0.008144505 0.030430226 -0.016652023 0.024017392 0.013530802 0.0024898564 -0.023161002 0.0055061565
0.020808581 -0.0044719023 -0.0109434165 0.023604542 0.015765704 -0.01093714 0.015380474 0.006674374
0.0017306806 -0.0076715695 0.022552032 0.018931739 -0.008723337 -0.015946679 -0.016961452 -0.01069036

policy.mlp_extractor.policy_net.2.weight f4 [64, 64]
00000000: 4acc 713e 89f6 8abe e9a6 a83c 8b0c b8bd
00000010: 1297 143e f400 d4bc c2cd 71be cc7e 0abe
00000020: 578e 56bd 28c8 cdbd 6f97 4c3e e702 5c3e
00000030: 5bf9 033e 8356 67be 185d 12bf 52d3 77be
00000040: 1efa 543e b81c 263e 1f05 02be c8db eb3d
00000050: 2387 a33e 8b61 58be ba60 5abd 9186 623e
00000060: 5aca 2ebe 3c2a 1a3e 373c 09bd 7bf6 b73d
00000070: 0fb2 f4bd 57cf 52bd 3661 2cbe 7c24 dc3d
00000080: e49d e23c be2c 673e 36c9 13be e773 473c
00000090: a63f 9ebd 7afd d8bd e8c9 81bd f39c 14be
000000a0: f379 1d3e 17d0 05be c3c0 01bd f4d9 633e
000000b0: a6d0 45bd 8239 1abe 3e1b aa3d 9f07 913e
000000c0: 9d10 323e 3d09 033e f16b a6bd 07f4 0cbe
000000d0: 6a8f 3dbd 5694 3abe 3434 c0bd fdae 04bd
000000e0: c1b1 00b7 2f33 77bd 7527 863d efda 4dbe
000000f0: 5b94 f83d 3504 8a3c bfd4 003f 4008 663e
00000100: ac30 b8bd 0ae9 15be 3f46 a23e ece1 3f3e
00000110: db6d 9fbd eef9 443e 9d5c 323e fcff 6e3e
00000120: 30c7 1e3d abd8 17be b289 da3e e646 8b3e
00000130: b482 b4be bf97 b63d 6704 583c 9cc6 883d
00000140: 255f 493d 01b8 3d3e 2cc0 7a3d 8814 d6bd
00000150: 24a3 bcbb 0097 3a3e ca67 cdbc 4058 31be
00000160: b412 27be 162a afbc a4b2 9a3c 5fc5 79be
00000170: e308 ad3e 24c4 47be 0908 a33d 7971 173d
00000180: 0111 e83c d8f8 1abe 85c7 bcbe 1b7d 18be
00000190: 2d92 1ebe bed1 3d3d 6cdb 983d 3b06 0dbd
000001a0: 5adc b63d 32df c2be bea1 8e3e 954c 57be
000001b0: 9705 25bd d40b f4bd b04a a9be 88a0 83bd
000001c0: d901 693d 8a36 bbbc 1848 95bc c604 9f3e
000001d0: d772 3abe 1bfa 92bc 049e 133d 2097 d13d
000001e0: 74b1 da3d 82c5 003d a2db f73d 3a79 113e
000001f0: 4b55 17be 3cd5 913d 1635 8c3e c025 213e
00000200: 3f5d ef3c 86e8 99bd a458 a43e a14b d5bd
00000210: 60ec 9abd 49db b73e d4ed 783c cfc0 1d3e
00000220: 2706 edbc 3553 f9bd e662 5a3e cbf9 0abc
00000230: 4426 c1bd 1335 18be 0cf9 03bd 1289 48be
00000240: e20c 67be 37d1 1bbd 26a4 5e3e e694 513e
00000250: 5c81 1f3e ec23 22bc 07b3 bfbd faa6 973e
00000260: a890 003e b82e 36be aea8 833d 5a95 673e
00000270: 33b3 babe 5aca d8bb ef30 683d ae8e 903d
00000280: b8c3 383e 2f53 15be 0c0f 3e3d 3fd3 053d
00000290: d2cc 853d 2546 0f3e 4818 453c 0f97 d1be
000002a0: fe04 bbbc 36ac f53d 7ada 8dbd dc30 95bd
000002b0: 748c 443d 5d73 96bd 3ec1 d3be f228 49be
000002c0: 4fea ddbd 5f34 bc3d dbd0 56bc 7f80 bb3c
000002d0: 7c64 92bc 744a 8d3e 912b 59be cc15 0abe
000002e0: e252 f1be cc9b 70be bd84 183e 7b4b 0d3d
000002f0: 6c57 843e 70dd e3bd d647 6dbe 4f3a efbc
00000300: 94c1 f3bd 1892 f2be 7f09 81be d758 1e3e
00000310: a790 77be 96e8 783d 798c 493e 7025 b7ba
00000320: 2ada a1bd 3175 e43d 3694 9e3e 1c13 8f3d
00000330: 5036 89bd 07f0 28bd d698 dbbd 76d6 553e
00000340: 0202 05be c0ef 99bd 5c74 b93d f0b3 51be
00000350: 3a62 603e 8109 8cbe 1fca 98bd bded 60bb
00000360: 8665 583d c5e7 d2be deea bd3d 95fc 1d3e
00000370: d364 c43d 15d2 46bd 785b 82be 133b 9fbc
00000380: a659 793d 79a6 c83d 09ed 6f3e d221 ca3d
00000390: cb6a 3f3d 372c 72bd 13ec 393d 6993 8ebe
000003a0: 53dc 45be 38f9 943d d8b2 1bbd 89b0 47be
000003b0: 4e76 d839 04f8 ba3d 8f1a e73e d68a 79be
000003c0: c342 edbd 1d39 e33d 94e0 79be f392 203e
000003d0: 3abe 72bd d977 b6bd 31a3 903e aece 33be
000003e0: d28e 3ebd ac2d 133e 2cea 6cbe 4325 c33d
000003f0: 6d7c 98bd 2bc7 963d 5f68 3d3e f799 3abe
0.23613086 -0.27141216 0.020587401 -0.089867674 0.14510754 -0.02587936 -0.23613647 -0.13524932
-0.05238184 -0.100479424 0.19979642 0.21485482 0.1288809 -0.22591595 -0.571733 -0.24201706
0.20798537 0.16221893 -0.12697266 0.11516529 0.3193904 -0.2113096 -0.053314902 0.22121646
-0.17069378 0.15055174 -0.03350469 0.08982559 -0.119480245 -0.051467266 -0.16833958 0.10749146
0.027663179 0.22575662 -0.14432225 0.012173629 -0.07726984 -0.10595222 -0.06337339 -0.14512996
0.15378551 -0.13067661 -0.031677973 0.22251111 -0.048294686 -0.15061 0.08305977 0.28326127
0.1738915 0.12796493 -0.08126057 -0.13764964 -0.04627935 -0.18220648 -0.09384957 -0.032393444
-7.670781e-06 -0.060351547 0.065504946 -0.20103048 0.121376716 0.01684771 0.50324625 0.22464085
-0.089936584 -0.14639679 0.3169422 0.18738526 -0.07784625 0.19235966 0.17418142 0.23339838
0.03876418 -0.14828746 0.42683178 0.2720253 -0.3525597 0.08915662 0.013184643 0.06678507
0.049163003 0.18527223 0.061218426 -0.10453135 -0.0057567526 0.18221664 -0.025073905 -0.17318821
-0.16315728 -0.021382373 0.01888401 -0.24391697 0.33795843 -0.19508415 0.07960517 0.03697345
0.02832842 -0.15133989 -0.3687097 -0.14891474 -0.15485449 0.046342604 0.074637264 -0.03442977
0.089287475 -0.3806091 0.27857774 -0.21025307 -0.040288534 -0.119163185 -0.33064795 -0.06427103
0.056886528 -0.022853155 -0.018222854 0.3105833 -0.1820787 -0.017941525 0.036039367 0.10233903
0.10678378 0.031438358 0.121024385 0.142064 -0.1477863 0.07120749 0.2738425 0.15737057
0.029219268 -0.075150535 0.32098877 -0.10414816 -0.07564616 0.3590949 0.015193421 0.15405582
-0.028933598 -0.121740736 0.2132679 -0.008482407 -0.09431127 -0.14863996 -0.03221993 -0.19583538
-0.22563508 -0.03804132 0.21742305 0.20466956 0.1557669 -0.00989626 -0.09360319 0.2961958
0.12555182 -0.1779126 0.064286575 0.22615567 -0.36464843 -0.006615919 0.05668729 0.07058464
0.18043411 -0.14582513 0.04640107 0.032672163 0.06533207 0.13991602 0.012029715 -0.4093556
-0.022829529 0.11995737 -0.06926437 -0.0728471 0.04798551 -0.073462225 -0.4135837 -0.19644526
-0.108357064 0.091896765 -0.013111318 0.02288842 -0.01787018 0.27595866 -0.21208026 -0.13484877
-0.47133547 -0.23496932 0.14894386 0.034495812 0.25847948 -0.1112622 -0.23171934 -0.029202608
-0.119021565 -0.47377086 -0.25202557 0.15463577 -0.24176274 0.060768686 0.19682492 -0.0013972949
-0.079029396 0.11155165 0.3097245 0.06986067 -0.066998124 -0.041244533 -0.107225105 0.20882592
-0.12989047 -0.07516432 0.09055397 -0.20478797 0.2191247 -0.27351 -0.074604265 -0.003432139
0.052831195 -0.4119245 0.09273313 0.15428384 0.09589543 -0.048540194 -0.2546041 -0.019437348
0.06087651 0.09797377 0.23430265 0.09869732 0.046732705 -0.059124198 0.045391154 -0.2784684
-0.19322328 0.07274097 -0.038012356 -0.19500937 0.00041286874 0.091293365 0.4513745 -0.24369368
-0.115849994 0.11094878 -0.24402076 0.15681057 -0.059263445 -0.08909578 0.28249505 -0.17559311
-0.046522923 0.14372891 -0.23136204 0.095285915 -0.07445607 0.07362207 0.18496846 -0.18222795

policy.mlp_extractor.policy_net.2.bias f4 [64]
00000000: 95ee 47bc 9284 b5bc 0c42 11bc 0787 18bc
00000010: 77e1 30bc 3460 a3bc 7673 a03c 3290 c43c
00000020: 41e8 a53b 773b a0bb 21a7 85bc 909a a4bc
00000030: aba3 693b 0133 b53c 8e1d a33c f951 9a3b
00000040: fcae 843c dd42 fdbb 6f60 733c 4d14 8f3b
00000050: 5a52 a3bc af7d 6fbb 2fe6 b1bc 86e7 b0bc
00000060: 4489 f3bb 0206 173c 7765 57bc 16c2 8c3c
00000070: 02e1 a2bc cf0f 94bc b1ed 9f3c ac04 ac3c
00000080: 5b13 6a3c e231 dbbc e653 b6bc b902 a5bc
00000090: 8fb4 b4bc b9cc a8bc 059f 8b3b 460e 85bc
000000a0: 7c76 2b3c 00fc 8dbc d301 a4bc c3ff 6cbb
000000b0: 45eb 9dbb 7baf 613c 12ee abbc 72fc bd3b
000000c0: 21a6 a03c 8855 823c bf63 763c df9d c1bc
000000d0: d4ec 153c 4909 bebc be25 6dbc 36c2 a63c
000000e0: c286 a6bc 54e7 b0bc 6d8e 843c fbaf aebc
000000f0: 2247 97bc 33bb d13c a51f b5bc 0356 5cbc
-0.0122028785 -0.022157941 -0.008865844 -0.009309537 -0.0107959425 -0.019943334 0.019586306 0.023994539
0.005063087 -0.0048899013 -0.016315045 -0.020093232 0.0035650532 0.022119047 0.019911554 0.004709479
0.01619672 -0.007728918 0.0148545345 0.0043664337 -0.01993673 -0.003654342 -0.021716205 -0.021594774
-0.007432135 0.009217741 -0.01314675 0.017182391 -0.019882683 -0.018073944 0.01952252 0.020998321
0.014286841 -0.026757184 -0.022256803 -0.0201429 -0.022058753 -0.020605432 0.0042609 -0.016242158
0.010465261 -0.017332077 -0.020020401 -0.0036163188 -0.004819306 0.013774748 -0.020987544 0.005797916
0.019610466 0.015909925 0.01503843 -0.02363485 0.0091507025 -0.023197787 -0.0144743305 0.020356279
-0.02032793 -0.02159468 0.016181195 -0.021324148 -0.018466536 0.025601959 -0.022109816 -0.013448241

policy.mlp_extractor.value_net.0.weight f4 [64, 16]
00000000: 89a5 3ebd 400e ac3d a77f bdbc 19d3 bbbb
00000010: 66c5 94bc b7e0 16be fb58 183e c5b8 613d
00000020: cdc2 9c3e 5975 c43d c642 93bd 3c32 25bd
00000030: cb7e 0cbe 45d8 7f3d 9590 633e fb30 5a3e
00000040: 32fa 3cbe 136f 7abd c0a0 593e 18c4 433e
00000050: 11f5 6dbe 5f16 9d3d 9303 0cbe 03a2 2ebe
00000060: 9974 11be cd2a 0c3e 601d b33c 79fc 833d
00000070: a3ec 01be 4fa1 e0be 0651 1b3d 40c3 81bd
00000080: fe2e 363d 0ea6 5b3c 3bfe e73d b090 103e
00000090: 1289 b1be 76fd 373e 5fd5 b5bd 3740 213e
000000a0: 00a1 87be 7e5c 973e 350c e13c 5505 b73d
000000b0: cf16 873e 016f 903e 53a0 fb3c c16c 873d
000000c0: 8c14 39be 3b44 61be 7b2c 9fbc 2c2d 3ebe
000000d0: e1ab 8b3e dcbd f33b 503c c73c 7360 32be
000000e0: 0a78 4f3d f2d7 1ebd b70d 05be 22a5 943e
000000f0: 4601 583e 76a5 cf3d 9196 7fb8 4a8f 00be
00000100: 5dcd a73c 4613 24bd bd4a 7ebd f5af 643e
00000110: 4bd8 333e 4d67 863e 5b80 babc 7b02 973e
00000120: 1b84 fcbd 1411 a7bd a65f 25be 5dab 933d
00000130: a38e 663e 9c2a aabe e23e 15be 5b35 433e
00000140: daf9 943e d954 b93c a8eb 193d 9836 08bf
00000150: 9a3e adbd 5ef0 51be bc2e 683e 98c9 b93e
00000160: 4bb7 25be abf8 fcbd ece4 773e 7b95 c8bd
00000170: 2c0c 7a3d cc88 623d 0aaa 803e 7179 babe
00000180: 47ca cdbd 471b 183e 2a3a 84bd 3614 ea3d
00000190: b6b2 c4be 2a48 49bc 8b21 013d ceb1 253d
000001a0: b9fa a6be 9478 5ebe 1e26 9ebd 8571 68be
000001b0: 7f15 8cbd 8f2a 9abc 347f 11be 5e69 fbbd
000001c0: 2d30 303e 571f d73d 1de5 963e 16c4 b93d
000001d0: cc35 2a3e 7ddf 8fbd ea23 a43d 3492 3cbe
000001e0: 4c1a 7dbd 8e0b 893c 1905 933d 7bae 903e
000001f0: fc99 1fbb c522 4e3e 6523 89bd dab8 1dbd
00000200: 88f4 a7bd 81d8 86be d29b d7bc 6af7 043e
00000210: 4167 73bd b8d6 9a3e d8b1 173e a263 b23c
00000220: 180b 4a3e d759 9bbe 736d 923d 4d51 89bd
00000230: 8542 a73d 99fa 7cbe f399 ad3c 70e9 7ebd
00000240: cbfb 3a3c 5078 b6bd 8946 dfbd bc08 35be
00000250: f794 38bd 55bb 8f3d b355 0b3e 70ab 12bc
00000260: ec13 23be 035b 4b3d 18d1 16be c7a4 883c
00000270: c81a 313e 4d13 553e e39e b13e b6a1 a83d
00000280: b7d4 c3bc 66ad 67be a09d 3ebe a88f 69be
00000290: cf74 c3bd 5527 4fbd 6534 283e 2b37 e7bd
000002a0: d4d7 133e 1afd e03e f36b 4f3e 2e88 2ebe
000002b0: 03f2 c4bc 5725 5cbe b703 c53e 80ac 763d
000002c0: 6b25 7f3d 1e17 fa3c 2b9c d03d 218b 003d
000002d0: a889 83be e1f6 f4be a052 06be 363d 4e3d
000002e0: 8e31 39be 2cc2 f5bd 64e2 38bf ebfa 63be
000002f0: fb9e 0a3e 4341 73be 9006 5abe 025c e83d
00000300: 15ec 033e 7461 afbd b6ce 743d fbff 78bd
00000310: 3531 b2be 71ee 3d3e 0c20 b9bd cc3c 66be
00000320: 7eff a3bd 04fb 653e 30be dcbc f149 11be
00000330: 8339 b2be 24b8 24be 1b66 3ebe cbfb 303c
00000340: 22c2 38be 4feb 883e 7ae0 cabd b392 91bd
00000350: 9b6a 7abd 986c ef3d ee16 9ebc a919 adbc
00000360: 0674 9bbe a0e7 b0bd 0cae 383e 86eb 36bd
00000370: 447b 91bc d8aa f03d 9c73 b93d 8416 683d
00000380: bb62 943d af99 6e3e c675 00bd 7120 c3bb
00000390: 0c82 88be b4d8 bf3e bfaa a83e ef2d 133e
000003a0: e8cd 853e e31c 0bbe 0f3f e1be fc97 b3bb
000003b0: 5616 e4bd b05f 7dbd f6c3 cfbd 5e76 42bd
000003c0: d87b b2bc 6952 38be b74a d03e bb7c 8abc
000003d0: d952 80be a207 c6bd bd2b 23bd b09e 8b3d
000003e0: bae9 8bbe a226 9fbd 8d69 94bd 2a51 423d
000003f0: ce9e 0ebe 9665 963d 1362 493e 3d2a f43e
-0.046544585 0.084011555 -0.023132158 -0.005731952 -0.018160533 -0.1473416 0.14877693 0.05510785
0.3061737 0.09592695 -0.071904704 -0.04033111 -0.13720243 0.06246211 0.22223122 0.21307747
-0.18454817 -0.061141085 0.21252728 0.19117773 -0.23238017 0.076702826 -0.13673238 -0.1705399
-0.14204635 0.13688202 0.021864593 0.0644464 -0.12687926 -0.4387307 0.037919067 -0.06336069
0.04447841 0.01340629 0.113277875 0.14117694 -0.3467489 0.17967781 -0.08878588 0.15747152
-0.2649002 0.29562753 0.027471641 0.08936564 0.2638459 0.2820969 0.030716097 0.0661254
-0.18074244 -0.21998684 -0.01943039 -0.18571919 0.2727957 0.0074384045 0.024320751 -0.17419605
0.050651588 -0.03878016 -0.12993513 0.29032236 0.21094236 0.10138981 -6.0936964e-05 -0.1255466
0.020483667 -0.040057443 -0.062082995 0.22332747 0.17562978 0.26250687 -0.022766283 0.2949408
-0.123298846 -0.08157554 -0.16149768 0.07210419 0.22515349 -0.33235633 -0.14574769 0.19063322
0.29096872 0.022623466 0.037578255 -0.53208303 -0.08459206 -0.20501849 0.22674078 0.36286616
-0.16183202 -0.12352117 0.2420842 -0.09794136 0.061046764 0.05530624 0.2512973 -0.36420777
-0.10048347 0.14854155 -0.064564064 0.11429636 -0.38417596 -0.012285272 0.03152613 0.04045277
-0.3261316 -0.21725684 -0.07722114 -0.22699554 -0.068400376 -0.018819122 -0.1420868 -0.122759566
0.17205878 0.105040245 0.29471675 0.090706035 0.16622084 -0.07025049 0.080146626 -0.18415147
-0.061792657 0.016729143 0.07178707 0.28258118 -0.0024353256 0.20130451 -0.06696204 -0.038506366
-0.082009375 -0.26337054 -0.026319418 0.12985006 -0.059424642 0.30241942 0.14813936 0.021776024
0.19730794 -0.3034198 0.07149782 -0.0670496 0.081669845 -0.2470497 0.021191573 -0.062234342
0.011412571 -0.089096665 -0.109021254 -0.17679113 -0.04506394 0.070181526 0.1360691 -0.008952007
-0.15925568 0.049647342 -0.147282 0.016680134 0.17295372 0.20808144 0.34691533 0.08233969
-0.023905141 -0.2262474 -0.18614817 -0.22808707 -0.09543764 -0.05057462 0.16426237 -0.11289819
0.144378 0.439431 0.20256023 -0.17044136 -0.024041181 -0.21498619 0.38479397 0.060223103
0.062291544 0.030528601 0.10186037 0.031382684 -0.2569096 -0.47844604 -0.13117456 0.050351344
-0.1808531 -0.11999926 -0.72220445 -0.22263686 0.13537209 -0.23755364 -0.21291566 0.11345674
0.12883027 -0.085635096 0.059767447 -0.060790997 -0.34803167 0.1854799 -0.090393156 -0.2248413
-0.08007716 0.22459036 -0.026946157 -0.14188363 -0.34809503 -0.16085869 -0.18593638 0.01080222
-0.18042806 0.26742026 -0.09906097 -0.07108059 -0.061136823 0.116906345 -0.019298043 -0.0211304
-0.30361956 -0.08637929 0.18035144 -0.044658206 -0.017758973 0.11751336 0.09055254 0.056662098
0.07245394 0.23300813 -0.031362318 -0.005954795 -0.26661718 0.3747002 0.3294277 0.14372991
0.26133657 -0.13585238 -0.43993422 -0.0054807644 -0.11137073 -0.061858833 -0.101447985 -0.047476165
-0.021787569 -0.18000187 0.40682003 -0.01690518 -0.25063208 -0.096694246 -0.039836634 0.068173766
-0.27326757 -0.077710405 -0.07246695 0.047440685 -0.13927767 0.07343595 0.19666319 0.47688475

policy.mlp_extractor.value_net.0.bias f4 [64]
00000000: 93c8 c0b9 edbc 91bd 379b 6c3d 107c 873d
00000010: ce7f 95bd e57a 923d c68c 8cbd e719 9c3d
00000020: 51b7 96bd dc54 a0bc 784c 8f3d 80f5 93bd
00000030: 75b6 83bd 5556 423d 5f7c 78bd 3f30 273d
00000040: b246 8a3d fbf4 ac3d 2ea5 a0bd cc51 6b3d
00000050: b4bc a4bd 1b07 83bd eaf0 873d 26e8 a9bd
00000060: 89e6 913d 2005 94bd 74bf 923d 6460 8dbd
00000070: d012 93bd b521 92bd a4a8 8fbd 4532 6a3c
00000080: aa38 94bd 2d75 91bd 95aa 76bd 0727 b43d
00000090: 5837 833d 92c1 4abc e46c a43d 6d4c 8b3d
000000a0: 37f9 c0bd ed70 79bd ce1a 1c3c 4832 7a3d
000000b0: 1b62 903d 5ac4 94bd 5b93 953d cd67 82bd
000000c0: 1d09 873d a6ec b4bd 8241 553d 5b67 aebc
000000d0: dab9 b1bd d55a 8a3d 42ad 6fbd c986 74bd
000000e0: 7e9c 9abd b2dd b03d f916 05bd d7e3 c8bd
000000f0: 586a b3bd 7090 91bd 5f18 93bd 1524 84bd
-0.00036770533 -0.07116113 0.057765212 0.0661546 -0.072997674 0.071523465 -0.06862788 0.07622128
-0.073591836 -0.019571714 0.06997007 -0.0722456 -0.06431285 0.047445614 -0.060665485 0.040817495
0.06751765 0.08445164 -0.078440055 0.057451054 -0.08043805 -0.0639784 0.066377476 -0.08296232
0.07124049 -0.0722754 0.07165423 -0.06903151 -0.071813226 -0.07135335 -0.070145875 0.014294212
-0.0723737 -0.07102428 -0.060221273 0.087965064 0.0640704 -0.012375252 0.08028582 0.068016864
-0.09422534 -0.06089871 0.009527875 0.06108311 0.07049962 -0.072640136 0.073034965 -0.06367455
0.06593535 -0.088341996 0.052064426 -0.021289518 -0.086780265 0.06755606 -0.05851484 -0.059698854
-0.0754938 0.08636035 -0.03249261 -0.09809082 -0.08760518 -0.071076274 -0.07182383 -0.064521946

policy.mlp_extractor.value_net.2.weight f4 [64, 64]
00000000: 19d2 b8bc 30b0 4c3e 3116 1bbe d4ae 9fbd
00000010: 05b5 d13d e4b0 d5bd ed6c c6be 2509 d4bc
00000020: dafc 93be 4044 7c3d e826 993d 16a7 ca3c
00000030: 0aff 3fbe 11c8 2e3e ed0f 0fbe 1d51 b1bb
00000040: 3c9a d73d 4451 983d ca55 e4bd 083c a73b
00000050: 135a 14be 93bb f73d 4231 a43d 8836 8cbd
00000060: b77f 9abc 4a8b 4bbd f5a2 dd3e 27ba 49be
00000070: 7623 8e3e d700 9fbe 9d0e 433d a575 24be
00000080: 8afa 95bd 0aa9 53be 8d0a 8b3e 0254 87be
00000090: bf5f aa3d 2f23 813e be8d 8b3e d780 63be
000000a0: 5d6b 10bd f086 e7bd 34b7 943e ab83 96bc
000000b0: 29a8 9e3e 03a8 9c3e 4004 4e3d e331 4a3b
000000c0: 77b6 69be 8b32 92bd 2050 10be c91f ddbc
000000d0: 5fa5 3abe e412 84bc b6c5 ea3e 4ad2 7cbd
000000e0: 4b2f 5c3c 0fd3 553e 9479 6fbd cbe3 57be
000000f0: c52b 7e3d 6ebf 5fbd 04a8 05bd 6f4b 01bc
00000100: df4b 3b3e f408 f1bd ac2a 13be 6349 0f3c
00000110: 314f b93c b976 853e 93be 823e f48b 293d
00000120: 5fdd 4a3e a18f 313d 0d81 ed3d fc47 653d
00000130: c2c2 30be fdce 35be 5eb9 51bd a455 163d
00000140: b750 5cbc 69ee ac3d 943d 73bd 283c f0bc
00000150: 9b69 f93d 545c 153e e6f0 743d d04f e5be
00000160: d1b9 2d3e 9997 ee3d 2f95 c03e 1170 2a3e
00000170: 7485 8bbd ff8d 05bd 4767 aebd 8f36 2dbd
00000180: 0edc 30be db88 9e3d 0e65 18bd 0d9d 0f3e
00000190: 51a6 f93d c9ca 4cbe 4c78 82bd ae38 eb3d
000001a0: f8b9 90bd 0fbf b33b 7d71 143e a412 89bc
000001b0: 4e43 bfbd ebe6 103e 103b 9abe 7770 fdbd
000001c0: 7d33 3bbd b215 ae3e c06d 8bbe 22a7 02be
000001d0: 23fd 03bf e6bb a23d b407 553e a897 31be
000001e0: 3dbf 2f3e 377a ccbe e3aa 9dbd da70 303e
000001f0: 4d3a fdbd ccc3 923d 1d45 a7be 6573 a63d
00000200: c128 31be 2696 83bd b1bc fc3d 59d6 2fbc
00000210: f306 74be fc07 94bd 65af ef3d 14ea b5bd
00000220: 4a15 36be 866e d33d c557 a03e e6fc 8b3e
00000230: 0145 5e3e 8ec2 a83e d0a9 bcbe 078b a53d
00000240: 6827 72be 8398 c1bd 5e17 90bd 559b d1bd
00000250: f52f 82be d1fd 07be a697 1bbe 628f 86be
00000260: ef86 57be 1b50 53be cc45 3abd c0f8 8abd
00000270: f669 3f3d 24f7 4cbe 68f4 cc3c d33d 4cbe
00000280: c004 8bbd da7c c03d 27ec f9bd e47b 763d
00000290: c325 83bd 138b 573d b5f5 3c3e 8bbb f6bd
000002a0: 715b 87be 0b28 6f3e 558d bc3d 65e8 543d
000002b0: 7800 9bbe 5565 96be 850a 8b3e 330c a2be
000002c0: cc44 013d 5ba4 c5bd 5d33 0cbe 11be 063e
000002d0: 4b6f 48be 0aa3 173e cc4e 33be 66ec 84be
000002e0: 3ae0 1b3d f189 ad3d bc0e 353e 431e bbbd
000002f0: 40f2 f4bd 42b5 933d 5fff c1be c36b cebd
00000300: 36bb 803e 7ebf 0dbe 08c7 96bd adbe 383e
00000310: ebb1 c2bd 826f 5d3c bfff f8bd e318 f2bd
00000320: a5b4 79be f1e0 38bc ce85 833e 4132 ccbb
00000330: 6ad1 8c3d 86fa 88be 55a3 0dbd 2e29 393d
00000340: 3c27 9f3d 7c22 db3d 6152 61be a4b2 3b3e
00000350: 0cb0 1abd c8ce 753e 76dc 53ba 280e 09be
00000360: dcb0 b33e 3872 bf3d 6041 043c 96bc e9bc
00000370: 7fcf be3e 07cd 27be c905 0e3d bbbe 62be
00000380: c397 9fbe 67a2 35bd ba63 0e3e 7e61 833e
00000390: a4a9 c9bd 7937 a33c 870f 0bbd f398 7ebd
000003a0: 3880 ffbd 5e8b d4bd 003c 253d 4684 833e
000003b0: 2b8a 9b3c 1d30 8e3d ef67 f43d efc9 8bbe
000003c0: bdbd 053e f2ae bf3d b714 943e b30b 80bd
000003d0: e011 81bc f351 363e 4f3f 16bf a925 863e
000003e0: 2fae 313e 8864 c03d 1f32 c2be edb7 a1be
000003f0: 17e4 0dbe 6c19 bc3d bb3c b43d 1215 203e
-0.02256112 0.19989085 -0.15145184 -0.07797018 0.10239605 -0.1043413 -0.3875498 -0.025883267
-0.28903848 0.061588526 0.07478124 0.024737876 -0.18749633 0.17068507 -0.13970919 -0.005411281
0.10527465 0.07437375 -0.111491755 0.005103592 -0.14487486 0.12096324 0.08017208 -0.068463385
-0.018859727 -0.049693383 0.4328839 -0.19699918 0.2776143 -0.31055328 0.04762136 -0.16060503
-0.07323177 -0.20669952 0.27156487 -0.2643128 0.08319043 0.25222155 0.27256578 -0.22217117
-0.03525864 -0.11305034 0.29046023 -0.018373331 0.3098767 0.30596933 0.050297022 0.0030852489
-0.22823511 -0.071385466 -0.14093065 -0.026992695 -0.18227147 -0.016122289 0.45853966 -0.061723985
0.01343901 0.20881294 -0.058465555 -0.2108299 0.06205346 -0.05462592 -0.032630935 -0.00789152
0.18290661 -0.11769286 -0.14371747 0.008745524 0.02262077 0.2606714 0.25536022 0.041393235
0.19811009 0.043349866 0.1159688 0.055976853 -0.17261794 -0.17754741 -0.05120217 0.036702767
-0.013446978 0.08443911 -0.059384897 -0.02932556 0.12178346 0.14586002 0.05980005 -0.44787455
0.16965415 0.11650009 0.37613818 0.16644312 -0.068125635 -0.03260612 -0.08515792 -0.04228836
-0.17271444 0.07740947 -0.03720575 0.14024754 0.121899255 -0.19999231 -0.06370601 0.1148542
-0.07066721 0.0054854224 0.14496417 -0.016732521 -0.09339009 0.14150588 -0.30123186 -0.123749666
-0.0457034 0.34000927 -0.2723217 -0.12759069 -0.5155813 0.07945995 0.2080372 -0.17343009
0.17162795 -0.39936993 -0.0769861 0.1723055 -0.123646356 0.071662515 -0.32669917 0.081274785
-0.17300703 -0.06425123 0.123406775 -0.010732257 -0.23830776 -0.072280854 0.11703376 -0.088825375
-0.17781559 0.10323815 0.31316963 0.27341384 0.2170601 0.32960933 -0.36848307 0.08083158
-0.23647845 -0.094529174 -0.07035707 -0.10234705 -0.25427213 -0.13280417 -0.15194568 -0.26281267
-0.21047567 -0.20636027 -0.04547672 -0.067857265 0.04673191 -0.20016152 0.025018886 -0.19945459
-0.06788015 0.093988135 -0.122032456 0.060176745 -0.06403687 0.052622866 0.18453105 -0.1204749
-0.26436952 0.23355119 0.092066444 0.05197944 -0.30273795 -0.29374185 0.27156463 -0.31649932
0.03155975 -0.09650489 -0.13691469 0.13158442 -0.19573705 0.14808288 -0.17510527 -0.25961608
0.038055636 0.08473576 0.17681402 -0.09136631 -0.11960268 0.072123066 -0.37890145 -0.10079148
0.2514283 -0.1384258 -0.07362181 0.18041487 -0.095065914 0.013515355 -0.12158155 -0.11821153
-0.24385317 -0.011284099 0.25688022 -0.0062315767 0.0687588 -0.26753634 -0.034579594 0.045205288
0.07771155 0.10699937 -0.22004081 0.18329865 -0.037765548 0.24004662 -0.00080818625 -0.13384306
0.3509587 0.093479574 0.008072227 -0.028532308 0.37267682 -0.16386805 0.034673486 -0.2214307
-0.31170473 -0.044344332 0.1390523 0.25660318 -0.098468095 0.019923912 -0.033950355 -0.062157582
-0.12475628 -0.10378145 0.040340424 0.25686854 0.018986782 0.06942771 0.11933886 -0.273025
0.1306066 0.0935954 0.28922054 -0.062522314 -0.015755594 0.17804699 -0.5869035 0.26200607
0.17351602 0.09394175 -0.37928864 -0.31585637 -0.1385654 0.09184536 0.08800646 0.15633038

policy.mlp_extractor.value_net.2.bias f4 [64]
00000000: 5d27 753d a88c 5e3d 7a08 703d faf2 913d
00000010: 18af 803d a2f0 73bd 4253 873d d6f3 69bd
00000020: 0626 7d3d a866 72bd 67cb 673d c4b3 843d
00000030: 5950 6ebd 9772 693d 77c7 803d f926 7c3d
00000040: d337 73bd 040a 91bd d0f4 84bd bdb1 a93d
00000050: 2a24 7cbd abd4 6f3d 5dd4 81bd 5cdd 7b3d
00000060: 73c4 753d f797 a83d 0fe1 7dbd 3940 953d
00000070: e4a2 73bd 162c 6c3d 0642 6d3d ab17 64bd
00000080: cf58 6bbd 6faa 76bd ac2b 5c3d 28d2 6cbd
00000090: 7bed 6ebd 24cf 843d 0bb8 873d af0a 653d
000000a0: 528a 74bd e295 69bd de94 71bd 6a81 703d
000000b0: b559 773d fe73 69bd 9e79 63bd 9524 50bd
000000c0: 77c9 7f3d 31b4 70bd c372 68bd 93f4 5e3d
000000d0: 6e19 813d 7728 84bd 1ad6 743d 4a20 77bd
000000e0: 343b 23bd 1085 7e3d 0ce0 66bd fd0c 723d
000000f0: 3d37 713d 75b7 6dbd 13e4 793d c6c6 6d3d
0.059851993 0.05433336 0.058601834 0.07126422 0.062833965 -0.059555657 0.06607677 -0.057117306
0.06180384 -0.059179932 0.056590464 0.064796 -0.058182094 0.056994047 0.06288045 0.061560605
-0.05937941 -0.070819885 -0.06492007 0.08285854 -0.061557926 0.058552425 -0.06339333 0.0614904
0.0600018 0.0823211 -0.06198221 0.0728764 -0.059481516 0.05765923 0.057924293 -0.055686634
-0.05745774 -0.060221132 0.053752586 -0.057817608 -0.058331948 0.064848214 0.066269 0.05591839
-0.059702225 -0.057027705 -0.05897986 0.05871717 0.060388286 -0.056995384 -0.055535905 -0.050816137
0.06244799 -0.058765594 -0.05675007 0.054432463 0.063036785 -0.064530306 0.059774496 -0.060333528
-0.039851382 0.062138617 -0.05636601 0.059094418 0.05889057 -0.058036286 0.061008524 0.058050893

policy.action_net.weight f4 [4, 64]
00000000: 3eec 0abc 83f3 4638 29f7 393c 050b 36bc
00000010: b2b0 b2bb 0656 283c 4ec3 923b f3bc 9dbc
00000020: 3814 533c 7966 3d3c 7008 a73c 3a06 cd3c
00000030: d8c5 a93b 2ec3 ebb9 708c d43a 64cd fc3b
00000040: 95aa 833b 8d8a deba e004 4bbb 11ad 323c
00000050: 2260 433a b95e 1a3b 4d4e 0a3b d2b9 d8b9
00000060: baa4 4dbb c179 aabc dd93 28bc 1d2c 10bb
00000070: d7fe 1bbb 6afd 1bbc c87b 95bc 9dc9 8cbc
00000080: 4843 a4bc 4b49 a03c ff24 103b f03f 643c
00000090: e2fd 123b e991 f3b9 af2c 673c 48f9 873c
000000a0: 56e1 433c bf27 f83c 7fde a93c d900 ae3b
000000b0: b874 b73c c119 f23b 4961 ca3c e5f6 4c3c
000000c0: 0d60 1abb fb23 23bc 42a8 b53b 651c ef3b
000000d0: 05ae 33bb 6a17 b7ba cfc2 be3c 11a9 1ebc
000000e0: 283f e8bb d66b c13c d86a 30bc 2bfe 693a
000000f0: df38 11ba a2f1 7abc f5dd 3439 54bc bb3c
00000100: 6ea4 c4bb 236c 94bc 16c7 cebb dd91 09bb
00000110: cc39 94bb 4cfa babc 821f 4c3c 20df b73c
00000120: ae16 40ba 736c 0abc ac37 7abc a9c0 cbbc
00000130: acac a33c 2dee 7d3c 8add 833c bc83 d0ba
00000140: 6eaa 303b 3723 043c 94b5 093c 51f7 29bc
00000150: 00b6 98bc e5f1 83bc a302 ebbc 8d46 8dbc
00000160: 43d9 803c 8f9c 193b ba15 8abc 7ddb ab3c
00000170: 36f2 3ebc 2b56 ccbb 746b 283c 018b d43c
00000180: fd99 d13b 4430 0bbd c9e6 b2bc fe95 64bb
00000190: 0f27 f9bc 9a5e 80bc cffa 173c c991 93bb
000001a0: cdf3 2c3c 32cd adbc b516 e8bc ce06 a93c
000001b0: 0ba4 183a 4c4b 353a c852 96bc df23 aaba
000001c0: 1470 453c 3118 9b3c 62d5 8b3c 536e 92bc
000001d0: 93ad 55bc 1789 97bc 3c2a 8abc 366b b93c
000001e0: 0d2b 48bc e300 b9bc 2ebf 95bb d279 0cbc
000001f0: aa9f 55bc f915 cb3c 8b43 a2bc b260 51ba
00000200: 1c04 443c 11d1 913b 1d95 52bc df7b d83b
00000210: 5f1f 263c ff1b 2bbb 68e3 39bb ebf4 b13c
00000220: 33a0 6ebc e63d 08bc f79c 47bc 6eb3 64bc
00000230: 06e7 09bd 96c6 d43b 88cf 78bc 2c99 603b
00000240: f185 0fbb e572 5bbc 79f4 f7ba eeab 203c
00000250: bf18 5a3c 5a7f a53c fd2e 423c 11ae 043b
00000260: 9513 a0bc c91a c53c 744e b13c f26d e1bb
00000270: 2df6 093b 601d ea3b 8103 b13c 85a0 09ba
00000280: 22af 793c f909 f3bb 22bd 2b3c 9b0d 87bc
00000290: 5f8b 973c 2a01 ad3b fd56 e2bc 3911 9cbc
000002a0: bb93 d6bc 5323 d6bc 4622 f8b9 e351 c6bc
000002b0: 646a e8bc bf4c 9a3b a135 b8bc 8e3f 7cbb
000002c0: dbb0 f93b d322 e7ba 29ef 84bc 8a71 31bc
000002d0: 747f e03c 29c7 3db8 da3f 7ebc 5bcd b73b
000002e0: 89ba ad3b 20cc 8cbc 50cb c23c 269f 42bc
000002f0: e7f5 f63b 9b7e db3b cf0c 083b 10ed c4bc
00000300: f21b f63b 5ff1 a93c ef6a ec3a 4fa5 003c
00000310: 99c3 af3b 19de 943c a7da 80bc 9fc5 e9bc
00000320: 499a d7ba b9e9 e73a feb6 523c cb85 b03c
00000330: 92e5 89ba 9720 a6bc c15b 85bc 2044 dabb
00000340: fd18 7abc 4465 303c 006f 07bc ec1f 00bc
00000350: 9f40 863c 89ff 07bc 4d94 7b3c 41e8 ac3c
00000360: be9f 9b3c 0a91 57bb 6f29 0f3c bd57 65bc
00000370: 3df9 6a3c 5c13 9a3c acf1 c9bc 9ff4 4fbc
00000380: eb3d cdbb 8f69 003d d854 a53c d849 903c
00000390: 9288 cc3c 3d66 7d3c cd8b c2bb 279c 9e3c
000003a0: c1a4 73ba 01a6 d03c f9d1 7d3c fbd6 193c
000003b0: d987 1c3c ba09 3ebc ed5b 9e3c f069 b2ba
000003c0: 09f3 6fbc 3eb3 1cbc 2e71 4ebc b477 b33c
000003d0: f2a7 39bc aead a83c d30c 123c 3429 88bc
000003e0: a353 993c 12b1 cb3c 53fa abbc 82dc a63c
000003f0: 5388 583c 3711 f8bc 021c 8f3c acf9 823c
-0.008479176 4.7433667e-05 0.0113504315 -0.011111026 -0.0054531926 0.010274416 0.0044788485 -0.019255137
0.0128832385 0.011560076 0.020389766 0.025027383 0.0051810555 -0.00044968113 0.001621617 0.007714914
0.0040181377 -0.0016978547 -0.0030978248 0.01090552 0.00074529846 0.0023554994 0.00211038 -0.00041337177
-0.0031378702 -0.02081001 -0.01028916 -0.002199895 -0.002380302 -0.009520868 -0.0182475 -0.01718598
-0.020051613 0.019566199 0.0021994708 0.0139312595 0.0022429158 -0.00046457283 0.0141097745 0.016598359
0.01195558 0.03029239 0.020735977 0.0053101596 0.022394523 0.007388324 0.024704592 0.012510036
-0.0023555786 -0.009957309 0.0055437395 0.007297086 -0.0027416956 -0.001396877 0.023286251 -0.009683863
-0.007087607 0.02361099 -0.010767661 0.00089261186 -0.00055397855 -0.015316399 0.00017248823 0.02291695
-0.006001047 -0.01811797 -0.006310354 -0.0020991482 -0.0045234915 -0.022824429 0.012458684 0.022445261
-0.0007327598 -0.008448708 -0.015272062 -0.024872141 0.019979797 0.01549868 0.016096849 -0.00159084
0.0026957053 0.0080650365 0.008405108 -0.010373906 -0.018641472 -0.016106555 -0.02868778 -0.017245555
0.015728598 0.0023439263 -0.016856063 0.020978684 -0.011654427 -0.006235858 0.010279525 0.025945188
0.0063965307 -0.033981577 -0.021838563 -0.0034879441 -0.030414132 -0.01567011 0.009276106 -0.004503463
0.0105561735 -0.021216009 -0.02833114 0.020633128 0.0005822784 0.0006915822 -0.01835002 -0.0012980661
0.012050647 0.018932434 0.017069522 -0.017874872 -0.013041872 -0.018497987 -0.016865842 0.02263413
-0.012217295 -0.02258343 -0.0045699095 -0.008573966 -0.013038555 0.02479075 -0.019807598 -0.0007987126
0.01196387 0.0044499715 -0.012852934 0.0066065635 0.010139315 -0.0026109216 -0.0028364304 0.021723231
-0.014564562 -0.008315539 -0.012183419 -0.013958795 -0.033667587 0.0064934 -0.015186198 0.0034270985
-0.0021899904 -0.013394092 -0.0018917463 0.009806616 0.013311564 0.020202328 0.011852023 0.0020245353
-0.019540587 0.024060624 0.021643855 -0.0068795616 0.0021051273 0.007144615 0.021608116 -0.00052500545
0.015239509 -0.0074169603 0.0104821045 -0.01648598 0.018499075 0.00527968 -0.02762937 -0.019051181
-0.02619349 -0.02613989 -0.00047327782 -0.024208969 -0.028371044 0.004708856 -0.02248651 -0.003849003
0.00761996 -0.001763428 -0.016227322 -0.0108302925 0.027404524 -4.5246594e-05 -0.015518153 0.005609197
0.0053017777 -0.017187178 0.023778588 -0.011878764 0.007536638 0.006698442 0.0020759588 -0.024038821
0.0075106556 0.020744978 0.001803724 0.007851913 0.005363893 0.01817231 -0.015729262 -0.028536616
-0.0016449179 0.0017693556 0.012861012 0.021548172 -0.0010520688 -0.020279212 -0.016279103 -0.006660953
-0.015264747 0.010766331 -0.008266211 -0.007820111 0.016388236 -0.00830067 0.015355182 0.021106841
0.01899707 -0.0032892847 0.008737906 -0.013997969 0.01434165 0.01880806 -0.024651371 -0.0126926
-0.0062634847 0.03135067 0.020182058 0.017613336 0.024967466 0.01546627 -0.0059370757 0.019361569
-0.00092942646 0.025469782 0.015491956 0.009389634 0.009553873 -0.011598999 0.019330943 -0.0013611894
-0.014645346 -0.009564219 -0.012600226 0.021907665 -0.011331545 0.02059063 0.00891419 -0.01662121
0.018716639 0.024864707 -0.020993387 0.020368818 0.013216096 -0.030281646 0.01746941 0.015988193

policy.action_net.bias f4 [4]
00000000: 388c 7fbc 0b4e de3c d755 543c fa6f e7bc
-0.015597396 0.027136823 0.012959919 -0.028251637

policy.value_net.weight f4 [1, 64]
00000000: bacb 923d 15b8 1d3d c3a5 153e c62e 863d
00000010: 8621 0c3e f49c 06be 5f29 c53d 1a0b c8be
00000020: 7e06 173e 4dde 54be c559 9a3d ca1e b83d
00000030: f1ef 8bbd d57f 073e 6ba0 1f3d 9425 2b3e
00000040: c913 12be 1c19 acbd 7049 e6bd 5a88 193d
00000050: e549 08be 8093 103e f899 24be 07dd 033e
00000060: f5c6 3b3e c6eb 103d f913 fabd c767 ab3d
00000070: 28b9 0abe d86b db3d 38a8 8a3e e3a5 8fbe
00000080: 3d66 5abe a7a6 1fbe 243e 8f3e 9649 66be
00000090: 09da b7bd 8b39 ea3d 45db f03d 2e5f 583e
000000a0: 1a08 3bbe 8e08 89be 6c58 50be 969f 3a3e
000000b0: 3f88 223e ba8b a4be 5f25 74be 92a6 2dbd
000000c0: 1376 af3d eaa5 4fbe 87b6 e3bd bccc 5d3d
000000d0: 8cef a23d 07a0 90bd 0dc2 f33d c5c7 42be
000000e0: 16b0 f6bb 4298 cd3d b945 5bbe 9658 353e
000000f0: 0a85 093e 5d69 44be eb69 c23d 1fa6 a53e
0.07167764 0.038505632 0.14614014 0.0655189 0.13684663 -0.1314581 0.096270315 -0.3907097
0.1474857 -0.20787926 0.075366534 0.089902475 -0.068328746 0.13232358 0.038971346 0.16713554
-0.1426536 -0.08403227 -0.11244476 0.03748355 -0.13309439 0.14118767 -0.1607436 0.12877284
0.18337615 0.0353811 -0.12210841 0.08369403 -0.13547194 0.10713929 0.27081466 -0.2805625
-0.21328063 -0.15590917 0.27977097 -0.22489008 -0.08977134 0.11436757 0.11760572 0.21130058
-0.18264809 -0.2676434 -0.2034623 0.1822494 0.15872286 -0.32137853 -0.23842381 -0.042395182
0.08567443 -0.20278135 -0.11118799 0.054150328 0.07955846 -0.07061773 0.119022466 -0.19021519
-0.0075283153 0.100388065 -0.21413316 0.17709574 0.13429657 -0.19180818 0.094928585 0.32353303
